CIFAR10_v2_100_EPOCHS.pth (torch, 122167 bytes, 24 tensors)

conv1.weight f4 [12, 3, 3, 3]
-0.20370615 0.142023 0.3761788 0.19571693 -0.51505667 -0.108630426 0.066008665 0.280254
-0.10235165 -0.1887447 -0.117283136 0.11462864 0.25709236 -0.32475898 -0.048697308 -0.016413312
0.31366077 -0.24468769 -0.2115241 -0.22497751 0.18085448 0.17052764 -0.38833505 -0.18950911
0.38311386 0.433229 -0.13019422 0.02054878 0.3261965 0.38326988 0.0930122 -0.23542434
-0.013034462 -0.089524046 -0.106221296 -0.37078077 -0.056463927 0.05179521 0.30930915 0.13550703
-0.015987292 -0.057031196 -0.21857701 -0.09359487 -0.22743206 0.0066755456 0.2691098 -0.003269101
0.038924366 -0.2109171 -0.0002953948 0.076453194 0.010074552 -0.051219404 -0.21367685 -0.47100192
-0.16323085 0.23618595 0.0392416 0.10997538 0.03874351 -0.018360991 0.20005542 0.17287926
-0.07759058 0.16886193 0.43276966 -0.086255886 0.5155913 -0.037688307 -0.3436138 -0.28862545
-0.000647468 -0.14651 0.0121976035 0.121226095 0.2528123 0.10954377 -0.2984248 -0.14072593
-0.18302526 0.22863962 0.11330933 -0.19025522 0.2925967 0.3543427 0.14098477 0.055757258
0.09569372 -0.21993777 -0.026745193 0.042712 0.16416012 -0.18743612 -0.0724175 0.025926331
-0.114924125 -0.013591941 0.09241345 -0.21420515 -0.21770433 0.14167206 -0.30776954 -0.40133986
-0.020630127 -0.10143929 0.046442613 0.188937 -0.035814364 0.18844406 -0.1681205 -0.039280914
0.23005807 -0.2750669 -0.21491058 0.39731216 -0.046461023 -0.14631727 0.11799349 -0.06610285
-0.25684533 0.44228098 -0.18432973 -0.29172382 0.4740289 -0.105417415 0.02912763 0.21362013
-0.19678432 -0.07238628 0.3133425 -0.15417862 -0.24484703 0.21388584 -0.19627282 0.39092702
-0.12991467 -0.003048567 -0.23213983 -0.3745638 0.12518828 0.062497508 0.22024646 0.045913562
0.2855707 -0.3502743 -0.11327648 -0.36422548 -0.10103086 0.4077372 -0.114352696 0.36238143
-0.09728844 0.13186082 -0.26071966 -0.00317926 -0.30699995 -0.37116587 0.36204684 -0.14254536
0.4741049 0.109905705 -0.10803072 0.22892833 0.028185122 -0.21199639 0.06915006 -0.030042533
-0.03008819 -0.019677317 0.102155834 -0.02923288 0.022203999 0.18386424 -0.238193 0.038645484
0.24462633 -0.18123561 -0.25556037 0.24290289 -0.011697835 -0.035445537 -0.09288253 -0.31949115
0.22178191 0.23368096 -0.20468563 -0.15448512 0.30517852 -0.14622325 0.267564 -0.13858849
0.034316376 -0.17657983 0.08600093 0.20852903 -0.13961875 -0.06786223 -0.15602262 0.42621145
0.16711803 0.24598701 -0.13318612 0.31622514 0.18896453 -0.19660062 -0.084768124 -0.3457819
0.2226713 -0.45346215 -0.061608884 -0.23994976 0.017992824 0.19291686 -0.22224848 0.058610402
-0.09608517 0.0550255 0.07597736 -0.12528287 0.20192777 0.024568629 0.0029149128 -0.020273112
0.17478159 -0.17683518 0.07454185 0.0649428 0.16475923 -0.030807598 -0.13674197 0.115731396
0.1545071 -0.0494596 -0.16692108 0.29631996 0.08540682 0.20120127 0.24079959 -0.12253948
-0.20252049 -0.21635629 0.043836277 -0.16031072 0.19710757 0.10800646 0.26448977 0.16478586
-0.37526816 0.03933407 -0.11103626 -0.15302584 0.22416963 0.17239933 -0.20834084 0.045137756
00000000: 5898 50be 7a6e 113e 829a c03e 056a 483e
00000010: c1da 03bf a179 debd 8d2f 873d 747d 8f3e
00000020: be9d d1bd 4a46 41be 2432 f0bd 6cc2 ea3d
00000030: 9ca1 833e cf46 a6be d476 47bd 3675 86bc
00000040: 2598 a03e 698f 7abe c699 58be 8160 66be
00000050: eb31 393e cc9e 2e3e dad3 c6be ad0e 42be
00000060: 8027 c43e 31d0 dd3e a251 05be ea55 a83c
00000070: 3a03 a73e f33b c43e 2e7d be3d 1413 71be
00000080: 7f8e 55bc 6258 b7bd 8d8a d9bd fad6 bdbe
00000090: b846 67bd 3727 543d c55d 9e3e 5bc2 0a3e
000000a0: c8f7 82bc 8b99 69bd a7d2 5fbe abae bfbd
000000b0: f3e3 68be 89be da3b c2c8 893e 6a3e 56bb
000000c0: 286f 1f3d a7fa 57be 38df 9ab9 7e93 9c3d
000000d0: bc0f 253c 70cb 51bd 1bce 5abe 2a27 f1be
000000e0: fd25 27be bbda 713e cdbb 203d c63a e13d
000000f0: 84b1 1e3d ca69 96bc 54db 4c3e 4307 313e
00000100: cfe7 9ebd 24ea 2c3e fc93 dd3e eda6 b0bd
00000110: cbfd 033f 0e5f 1abd 26ee afbe b7c6 93be
00000120: d8ba 29ba b806 16be 75d8 473c 6345 f83d
00000130: 9d70 813e 7c58 e03d 23cb 98be 751a 10be
00000140: f96a 3bbe 8120 6a3e b90e e83d 44d2 42be
00000150: 3ccf 953e 686c b53e 505e 103e b961 643d
00000160: 12fb c33d 5e37 61be bc18 dbbc c7f2 2e3d
00000170: 9719 283e 41ef 3fbe a04f 94bd 7563 d43c
00000180: 575d ebbd bcb0 5ebc 4343 bd3d 9858 5bbe
00000190: e2ed 5ebe 7b12 113e f893 9dbe 6b7c cdbe
000001a0: 8300 a9bc 67bf cfbd 9c3a 3e3d b378 413e
000001b0: 15b2 12bd 7bf7 403e c827 2cbe 06e5 20bd
000001c0: 5894 6b3e 92d5 8cbe 8511 5cbe 806c cb3e
000001d0: ea4d 3ebd 32d4 15be 92a6 f13d ee60 87bd
000001e0: 3b81 83be a772 e23e efc0 3cbe d35c 95be
000001f0: eab3 f23e 16e5 d7bd 119d ee3c 3cbf 5a3e
00000200: d481 49be 423f 94bd 6e6e a03e 00e1 1dbe
00000210: 2eb9 7abe e404 5b3e befb 48be 9627 c83e
00000220: 5a08 05be 78ca 47bb 10b6 6dbe d4c6 bfbe
00000230: 5b31 003e 63fd 7f3d 4a88 613e dc0f 3c3d
00000240: 5336 923e 2757 b3be 80fd e7bd c37b babe
00000250: 44e9 cebd eec2 d03e bf31 eabd 0f8a b93e
00000260: 293f c7bd 8606 073e 0c7d 85be 225b 50bb
00000270: 192f 9dbe 7409 bebe 345e b93e 69f7 11be
00000280: e1bd f23e 3e16 e13d 363f ddbd 306c 6a3e
00000290: 7ce4 e63c 9515 59be 8c9e 8d3d c21b f6bc
000002a0: 827b f6bc 5332 a1bc 1437 d13d cb79 efbc
000002b0: 29e5 b53c e846 3c3e dee8 73be ba4a 1e3d
000002c0: 537f 7a3e d495 39be cfd8 82be 89bb 783e
000002d0: 47a8 3fbc 572f 11bd 3239 bebd 5894 a3be
000002e0: cc1a 633e 104a 6f3e 1c99 51be 5931 1ebe
000002f0: 5c40 9c3e 8cbb 15be 26fe 883e 24ea 0dbe
00000300: 548f 0c3d 58d1 34be 4121 b03d a288 553e
00000310: 38f8 0ebe 5afb 8abd 65c4 1fbe 6338 da3e
00000320: fd20 2b3e 05e4 7b3e f161 08be 43e8 a13e
00000330: eb7f 413e ac51 49be e99a adbd 530a b1be
00000340: f203 643e 312c e8be 9959 7cbd 64b5 75be
00000350: b065 933c ff8b 453e 1b95 63be 7611 703d
00000360: 4dc8 c4bd 6b62 613d 059a 9b3d 274a 00be
00000370: 27c6 4e3e 2644 c93c 1f08 3f3b cc13 a6bc
00000380: f2f9 323e 4814 35be 66a9 983d bb00 853d
00000390: a5b6 283e 3760 fcbc 1606 0cbe 9504 ed3d
000003a0: 1c37 1e3e 2696 4abd 5ced 2abe 40b7 973e
000003b0: c5e9 ae3d b507 4e3e 2b94 763e fbf5 fabd
000003c0: 8861 4fbe 818c 5dbe ab8d 333d 7e28 24be
000003d0: 91d6 493e 7e32 dd3d 346b 873e a0bd 283e
000003e0: 2623 c0be c31c 213d fb66 e3bd ceb2 1cbe
000003f0: b98c 653e 7389 303e 4d57 55be 5ee2 383d

conv1.bias f4 [12]
-0.013195159 -0.17252678 -0.072185464 -0.0045795795 -0.07233987 -0.061686102 -0.10010887 0.048562206
0.02154168 -0.070572175 -0.49393108 0.1837041
00000000: 8230 58bc dcaa 30be f9d5 93bd 4c10 96bb
00000010: ed26 94bd 91aa 7cbd e105 cdbd 2ae9 463d
00000020: 2d78 b03c 2588 90bd 89e4 fcbe ed1c 3c3e

bn1.weight f4 [12]
1.0 1.0 1.0 1.0 1.0 1.0 1.0 1.0
1.0 1.0 1.0 1.0
00000000: 0000 803f 0000 803f 0000 803f 0000 803f
00000010: 0000 803f 0000 803f 0000 803f 0000 803f
00000020: 0000 803f 0000 803f 0000 803f 0000 803f

bn1.bias f4 [12]
0.0 0.0 0.0 0.0 0.0 0.0 0.0 0.0
0.0 0.0 0.0 0.0
00000000: 0000 0000 0000 0000 0000 0000 0000 0000
00000010: 0000 0000 0000 0000 0000 0000 0000 0000
00000020: 0000 0000 0000 0000 0000 0000 0000 0000

bn1.running_mean f4 [12]
0.011521741 -0.014997825 -0.016529026 -0.00873927 0.014502863 0.007456614 -0.010474967 0.01971472
0.013531088 -0.0065626935 -0.01655299 0.012764706
00000000: afc5 3c3c 70b9 75bc e167 87bc 282f 0fbc
00000010: 6b9d 6d3c 9d56 f43b 329f 2bbc c480 a13c
00000020: 7fb1 5d3c dd0b d7bb 239a 87bc 0f23 513c

bn1.running_var f4 [12]
0.94509125 0.9401 0.9393192 0.93052393 0.92788726 0.935804 0.93179566 0.9449604
0.93835986 0.93081355 0.93277895 0.9272229
00000000: 80f1 713f 65aa 703f 3977 703f d136 6e3f
00000010: 058a 6d3f da90 6f3f 298a 6e3f ede8 713f
00000020: 5a38 703f cc49 6e3f 9aca 6e3f 7b5e 6d3f

conv2.weight f4 [16, 12, 3, 3]
-0.011079477 0.13189459 0.03809298 -0.11368734 -0.15249845 -0.097409114 -0.025782429 0.14647219
0.103197716 0.15734331 0.08574008 0.26102766 0.22383599 0.1237326 0.20715441 0.25540984
0.41333053 0.28650168 -0.021453906 0.113365136 0.193812 -0.0073972903 0.2547547 0.17036018
0.049953435 0.30740386 0.24040788 0.027444957 0.064957686 0.041796632 0.099538006 0.10514514
0.15710583 -0.10561298 0.031333536 -0.11687445 0.2552111 0.119672514 0.34826726 0.04254574
-0.5103396 -0.13298547 0.16455652 -0.7346512 -0.4067937 0.09104073 -0.06930979 -0.023689333
-0.08403965 -0.2242196 -0.16391133 -0.0685699 0.050141525 0.016265491 -0.17568257 -0.20769131
-0.03944201 0.01976818 -0.49340233 -0.53084695 -0.13505407 -0.6270035 -0.60682917 -0.06823927
-0.14018066 -0.0046756268 0.16558929 0.0007690973 0.08320583 -0.066290826 0.05916542 -0.034943324
-0.02001244 0.11075698 0.09603352 -0.072282776 -0.09796383 0.039303675 0.16175278 0.13523927
0.0132588865 -0.0040339166 -0.06296634 -0.040337652 -0.20277527 -0.50183976 -0.39435053 -0.28335297
-0.39599994 -0.40367633 0.15140775 0.11038357 -0.11646641 0.16605113 -0.10028977 -0.11753024
0.117847264 -0.10193929 -0.12004547 0.017540183 -0.033666708 -0.023970762 0.061999124 -0.07622346
-0.0052665872 0.11200954 -0.02124352 0.19585875 -0.16681391 -0.65517795 -0.6193112 0.21499935
-0.065833464 -0.2078252 0.11560024 0.28702506 0.26321605 -0.17553109 0.08449001 0.07970313
0.21364266 -0.047479365 0.022865506 0.074082315 0.26886508 -0.10748944 -0.14412606 -0.26533
-0.18653762 -0.30496317 -0.37321067 -0.14254978 0.036169097 -0.12105665 0.23191828 -0.16412652
-0.05078317 0.11717447 0.08999551 0.026080662 0.014614794 -0.1565328 0.067809865 0.09718014
-0.040508416 -0.61869633 -0.10700235 0.06413897 -0.39347184 -0.4221192 0.12547861 0.07140193
0.14918463 -0.38000074 -0.8511146 -0.49523303 -0.1456368 -0.23487735 0.25481924 0.086373515
0.15355971 0.28946552 0.051327486 -0.07303956 -0.042874135 0.1665624 -0.30826387 -0.24607663
0.009534121 -0.25058195 -0.09950977 0.0698789 0.12011733 -0.028638378 0.16767369 0.1270185
-0.030645378 0.06625056 -0.06363723 -0.047324095 -0.114071615 -0.16382313 0.006763875 -0.0991842
-0.2006356 0.14482014 0.010799734 0.20017177 0.21874304 0.09826225 -0.040050603 -0.011834367
-0.2485928 -0.042603415 0.15179393 -0.1514964 -0.3223745 0.168213 -0.13648833 -0.18545052
-0.044119734 -0.2533209 -0.25502717 0.026489548 0.3413769 -0.042973466 0.23421386 -0.1117293
-0.062981695 0.07495774 0.040535357 0.07543623 0.123444736 -0.07589751 0.06519349 -0.044453777
-0.090356715 0.105583504 0.2693398 0.2576302 0.08064821 0.079022504 -0.045400552 0.28586996
0.1789108 -0.20517191 -0.080467604 -0.04101829 -0.01034775 -0.020592459 0.15016417 -0.22535653
-0.042084455 0.105210714 -0.39197642 -0.454042 -0.16818549 -0.24600886 -0.3995184 -0.37748346
-0.36461326 -0.14833422 -0.092952855 -0.032491196 -0.0063020773 0.019474028 -0.18559174 -0.1325253
-0.18102625 -0.028949413 -0.09956393 -0.04659101 -0.12389353 -0.011009785 0.16527566 -0.00804996
00000000: b286 35bc 600f 073e 6207 1c3d e8d4 e8bd
00000010: 8e28 1cbe 6e7e c7bd ac35 d3bc cefc 153e
00000020: 5359 d33d 9b1e 213e 7f98 af3d 6ba5 853e
00000030: 4335 653e 8467 fd3d 4920 543e 14c5 823e
00000040: 0fa0 d33e 59b0 923e 1ac0 afbc fb2b e83d
00000050: a776 463e f864 f2bb 356f 823e e672 2e3e
00000060: f99b 4c3d 0a64 9d3e 7c2d 763e 3fd4 e03c
00000070: 8908 853d f232 2b3d 95da cb3d 5656 d73d
00000080: 5ae0 203e 9e4b d8bd 9857 003d df5b efbd
00000090: 08ab 823e dd16 f53d 1650 b23e 7144 2e3d
000000a0: 9ea5 02bf 582d 08be 8181 283e 1a12 3cbf
000000b0: 4447 d0be 9073 ba3d 4bf2 8dbd 2210 c2bc
000000c0: fb1c acbd d399 65be 5fd8 27be 606e 8cbd
000000d0: 3361 4d3d 353f 853c 22e6 33be 08ad 54be
000000e0: f28d 21bd e1f0 a13c 3b9f fcbe 96e5 07bf
000000f0: 9d4b 0abe 4d83 20bf 2859 1bbf 08c1 8bbd
00000100: 858b 0fbe 0036 99bb 3d90 293e 3f9d 493a
00000110: d167 aa3d 7cc3 87bd 7057 723d bb20 0fbd
00000120: 21f1 a3bc 8ed4 e23d 39ad c43d fe08 94bd
00000130: 43a1 c8bd e4fc 203d 85a2 253e 2a7c 0a3e
00000140: cd3b 593c f22e 84bb 7ff4 80bd 1839 25bd
00000150: 52a4 4fbe 9278 00bf 50e8 c9be a413 91be
00000160: 81c0 cabe aaae cebe a20a 1b3e c810 e23d
00000170: f185 eebd 4f09 2a3e b964 cdbd b2b3 f0bd
00000180: e859 f13d 8cc5 d0bd 66da f5bd 6eb0 8f3c
00000190: 1ae6 09bd 555e c4bc cbf2 7d3d 0c1b 9cbd
000001a0: 5693 acbb 4265 e53d e406 aebc 328f 483e
000001b0: 44d1 2abe beb9 27bf 2e8b 1ebf ca28 5c3e
000001c0: b2d3 86bd 21d0 54be d2bf ec3d f3f4 923e
000001d0: 41c4 863e 6cbe 33be 1909 ad3d 653b a33d
000001e0: 24c5 5a3e b979 42bd 7150 bb3c 78b8 973d
000001f0: afa8 893e 6c23 dcbd c895 13be 55d9 87be
00000200: b803 3fbe 2224 9cbe 7815 bfbe 92f8 11be
00000210: 0c26 143d 8dec f7bd fc7b 6d3e c810 28be
00000220: 0302 50bd 2bf9 ef3d 914f b83d 1da7 d53c
00000230: e472 6f3c 224a 20be e6df 8a3d 6206 c73d
00000240: 27ec 25bd e262 1ebf 0c24 dbbd 4b5b 833d
00000250: 2475 c9be 0220 d8be 777d 003e 2d3b 923d
00000260: dbc3 183e 758f c2be a5e2 59bf 2f8f fdbe
00000270: d021 15be b083 70be ab77 823e 99e4 b03d
00000280: c23e 1d3e d334 943e c53c 523d c495 95bd
00000290: ca9c 2fbd 558f 2a3e c3d4 9dbe 83fb 7bbe
000002a0: 0035 1c3c 474c 80be c7cb cbbd ab1c 8f3d
000002b0: 1300 f63d 089b eabc a7b2 2b3e 2311 023e
000002c0: 040c fbbc 60ae 873d 3c54 82bd e9d6 41bd
000002d0: 619e e9bd 40c1 27be 7fa3 dd3b 1621 cbbd
000002e0: 6b73 4dbe bb4b 143e 5ef1 303c d4f9 4c3e
000002f0: 2dfe 5f3e b83d c93d 1a0c 24bd efe4 41bc
00000300: 1c8f 7ebe eb80 2ebd de6f 1b3e df21 1bbe
00000310: 450e a5be 0740 2c3e 99c3 0bbe bee6 3dbe
00000320: e5b6 34bd 47b3 81be ec92 82be 9c00 d93c
00000330: f4c8 ae3e f204 30bd c2d5 6f3e 55d2 e4bd
00000340: 8cfc 80bd 7283 993d 6708 263d 4f7e 9a3d
00000350: 98d0 fc3d 2770 9bbd 2a84 853d 2a15 36bd
00000360: f10c b9bd 2a3c d83d e8e6 893e 1be8 833e
00000370: e42a a53d 8dd6 a13d eef5 39bd 8c5d 923e
00000380: 6534 373e 9618 52be 33cc a4bd cb02 28bd
00000390: 9c89 29bc 84b1 a8bc a3c4 193e ddc3 66be
000003a0: c060 2cbd b778 d73d 22b1 c8be 3178 e8be
000003b0: d138 2cbe bfe9 7bbe ad8d ccbe 8345 c1be
000003c0: 97ae babe ede4 17be 115e bebd 7d15 05bd
000003d0: a881 cebb ff87 9f3c c30b 3ebe b6b4 07be
000003e0: f25e 39be 5227 edbc 2ce8 cbbd 37d6 3ebd
000003f0: e4bb fdbd 6362 34bc 063e 293e fbe3 03bc

conv2.bias f4 [16]
0.3438274 0.37178865 0.24548483 -0.10670572 0.15252739 0.10875785 0.41714796 0.14602341
-0.16759536 0.056470264 0.30076188 -0.07173517 -0.18233824 0.13530363 -0.11831136 -0.22663677
00000000: 250a b03e 155b be3e 6060 7b3e 8788 dabd
00000010: 2430 1c3e 70bc de3d 6b94 d53e 2987 153e
00000020: 1e9e 2bbe 5d4d 673d 76fd 993e e4e9 92bd
00000030: e0b6 3abe 098d 0a3e 3a4d f2bd 7813 68be

bn2.weight f4 [16]
1.0 1.0 1.0 1.0 1.0 1.0 1.0 1.0
1.0 1.0 1.0 1.0 1.0 1.0 1.0 1.0
00000000: 0000 803f 0000 803f 0000 803f 0000 803f
00000010: 0000 803f 0000 803f 0000 803f 0000 803f
00000020: 0000 803f 0000 803f 0000 803f 0000 803f
00000030: 0000 803f 0000 803f 0000 803f 0000 803f

bn2.bias f4 [16]
0.0 0.0 0.0 0.0 0.0 0.0 0.0 0.0
0.0 0.0 0.0 0.0 0.0 0.0 0.0 0.0
00000000: 0000 0000 0000 0000 0000 0000 0000 0000
00000010: 0000 0000 0000 0000 0000 0000 0000 0000
00000020: 0000 0000 0000 0000 0000 0000 0000 0000
00000030: 0000 0000 0000 0000 0000 0000 0000 0000

bn2.running_mean f4 [16]
-0.009915355 -0.07005579 0.038347293 -0.039643995 0.052297402 0.014661697 -0.01438043 -0.065103866
-0.003504521 -0.003317336 0.010487351 -0.08573235 0.015098839 -0.030766321 0.014729546 0.020043274
00000000: 0374 22bc 6979 8fbd 0d12 1d3d be61 22bd
00000010: cd35 563d 9d37 703c e59b 6bbc 2d55 85bd
00000020: 1bac 65bb aa67 59bb 23d3 2b3c 7194 afbd
00000030: 1f61 773c a709 fcbc 3254 713c cb31 a43c

bn2.running_var f4 [16]
0.91302735 0.91317934 0.91452557 0.91980404 0.9165465 0.917848 0.91318554 0.91526663
0.9143321 0.9175996 0.91703653 0.9159341 0.91455394 0.91850793 0.92291605 0.9157491
00000000: 29bc 693f 1fc6 693f 591e 6a3f 4778 6b3f
00000010: cba2 6a3f 16f8 6a3f 87c6 693f ea4e 6a3f
00000020: ab11 6a3f cfe7 6a3f e8c2 6a3f a87a 6a3f
00000030: 3520 6a3f 5623 6b3f 3a44 6c3f 886e 6a3f

conv3.weight f4 [24, 16, 3, 3]
-0.10668596 -0.2960423 0.011669961 -0.47102183 0.08820649 0.40635702 -0.054818425 -0.015779907
0.13185818 -0.090140566 -0.045576792 0.022419829 -0.12058784 -0.23615278 0.18149675 -0.22865325
0.18766685 0.09360273 -0.015379285 -0.066211134 -0.1016381 0.0483782 0.102299154 -0.08377074
0.34729317 -0.03220487 -0.29103047 0.27664816 -0.011048805 -0.078851335 0.12112994 0.049436204
-0.013225686 0.06557113 -0.41266364 -0.26035616 0.044645 -0.1026539 0.18929431 0.09852776
0.20561787 0.04316693 0.23120137 0.026360663 -0.20468852 -0.059779957 0.012608208 -0.12481257
-0.19571427 -0.13296822 0.13132049 -0.055897314 0.21753725 -0.009111998 0.04351974 0.033831414
-0.17461279 -0.19471133 0.24100637 -0.28357002 0.048033003 0.079459205 -0.036824193 0.2225143
0.13448274 0.061616663 0.042638753 0.091508225 0.023170337 -0.06135454 0.12579457 -0.15638916
-0.1478987 -0.15303393 -0.53102833 -0.25210077 -0.06661155 0.05163822 -0.040591307 0.19989464
0.009237592 0.033487774 -0.1620373 -0.11090281 0.041468933 0.07571879 -0.42959064 0.13191594
-0.030446857 0.0040762657 -0.101675525 0.22865148 0.14073293 -0.06397451 0.06704489 -0.36099344
-0.16967215 0.0021464059 -0.5048772 0.051803987 -0.096803345 0.052849494 -0.12783717 0.05947963
0.10674694 -0.025429286 -0.12531933 -0.139805 0.031213028 -0.14684051 -0.35912415 0.09438466
0.0013161119 -0.4138282 -0.028797178 0.29433095 -0.18364228 -0.12871689 -0.43047512 -0.2041501
-0.19087298 -0.3150571 0.0014444016 0.088352256 -0.092864014 -0.04937957 0.23923127 0.009419818
0.26213482 -0.08398808 0.11771878 0.1249712 0.036123987 -0.023569634 -0.10573384 0.090381786
0.20203817 0.31517935 0.12522542 -0.15148757 -0.15948766 -0.11158063 0.03332156 -0.045232095
-0.025736013 -0.07368503 0.2415051 0.2039616 -0.2094179 -0.083764575 0.51767045 0.006972606
0.53833795 0.28585762 0.049866408 0.24832742 -0.15203293 -0.33002913 0.067717835 0.25459003
0.0149829155 0.05685556 -0.081095144 -0.24643002 -0.032536954 -0.11362422 -0.08730609 -0.14218347
-0.20767923 -0.077141054 -0.03643597 0.016583143 -0.15730344 0.16814692 -0.23020352 -0.022095213
0.076924175 0.19264063 0.15696785 -0.028729027 -0.12384779 -0.08850048 -0.27775383 0.12884712
-0.028487254 -0.080958895 0.013924548 -0.15473887 -0.09238962 0.17556392 0.087567486 0.10365028
-0.4151557 -0.019707471 -0.049294405 -0.3117296 -0.088484816 -0.27824816 0.009958625 -0.25872645
-0.3052067 -0.48608714 -0.13330735 -0.08960098 -0.047120303 0.18350036 0.117883325 0.040282737
-0.018636415 -0.10520759 -0.14864275 0.015517321 0.04879242 -0.18948928 0.0020693713 0.06848406
0.0040408825 -0.007069533 -0.008934192 -0.09440434 -0.015728822 -0.02383977 -0.09009168 0.04462457
0.034964036 0.13181713 -0.047224484 0.18094409 0.1488772 -0.036380902 0.10410097 0.06474745
0.017726561 0.25361776 0.36100078 0.09900405 0.21603534 0.086137556 -0.061250683 -0.122227706
-0.10752279 0.009348672 -0.008910616 0.044158 0.39433646 0.06448696 0.0036243373 -0.122618034
0.14404821 0.0033538083 -0.14905336 0.016495174 0.0020064316 -0.052132554 0.107066154 0.26923537
00000000: 2b7e dabd db92 97be 5d33 3f3c c629 f1be
00000010: 9ba5 b43d 070e d03e 4989 60bd dd44 81bc
00000020: d505 073e 9e9b b8bd bbae 3abd caa9 b73c
00000030: c2f6 f6bd 09d2 71be 49da 393e 1424 6abe
00000040: bd2b 403e cab2 bf3d 66f9 7bbc b499 87bd
00000050: a327 d0bd 3828 463d 3882 d13d fe8f abbd
00000060: 69d0 b13e 41e9 03bd f201 95be d4a4 8d3e
00000070: 0c06 35bc cf7c a1bd f912 f83d 9e7d 4a3d
00000080: 8cb0 58bc 284a 863d a648 d3be 674d 85be
00000090: addd 363d 353c d2bd 5ed6 413e ecc8 c93d
000000a0: 7e8d 523e cfcf 303d 0dc0 6c3e 51f2 d73c
000000b0: de99 51be d4db 74bd a892 4e3c bc9d ffbd
000000c0: 5269 48be d228 08be e178 063e 95f4 64bd
000000d0: 16c2 5e3e 7d4a 15bc c141 323d cf92 0a3d
000000e0: b2cd 32be 6862 47be 60ca 763e 1730 91be
000000f0: 41be 443d 82bb a23d f7d4 16bd cada 633e
00000100: d8b5 093e c161 7c3d f9a5 2e3d aa68 bb3d
00000110: b8cf bd3c e64e 7bbd 4bd0 003e 7b24 20be
00000120: c272 17be edb4 1cbe 79f1 07bf 5a13 81be
00000130: a36b 88bd 9982 533d 1243 26bd 2eb1 4c3e
00000140: 4559 173c 7a2a 093d 1bed 25be 0321 e3bd
00000150: 54db 293d 7412 9b3d 4ef3 dbbe f914 073e
00000160: b06b f9bc 3292 853b 423b d0bd 9d23 6a3e
00000170: 4b1c 103e 1105 83bd d54e 893d 22d4 b8be
00000180: 89be 2dbe b7aa 0c3b a23f 01bf 6b30 543d
00000190: d540 c6bd b678 583d bfe7 02be eaa0 733d
000001a0: 249e da3d 1451 d0bc b653 00be 0b29 0fbe
000001b0: 77b2 ff3c 5c5d 16be 1fdf b7be bf4c c13d
000001c0: 6381 ac3a 4ae1 d3be 0fe8 ebbc 8cb2 963e
000001d0: b90c 3cbe 5cce 03be 3c67 dcbe b90c 51be
000001e0: 3574 43be 2a4f a1be 1352 bd3a 07f2 b43d
000001f0: 7d2f bebd 3b42 4abd 0bf9 743e 9555 1a3c
00000200: 8936 863e f101 acbd 8b16 f13d e7f0 ff3d
00000210: bff6 133d 1b15 c1bc fc8a d8bd 161a b93d
00000220: 18e3 4e3e 305f a13e 183b 003e 8f1f 1bbe
00000230: bc50 23be 6384 e4bd 307c 083d 4a45 39bd
00000240: 55d4 d2bc 2de8 96bd 1d4d 773e 4fdb 503e
00000250: a571 56be c38c abbd 0d86 043f 757a e43b
00000260: 84d0 093f ee5b 923e b840 4c3d 8b49 7e3e
00000270: 85ae 1bbe 94f9 a8be a6af 8a3d a059 823e
00000280: e77a 753c 60e1 683d 3615 a6bd 2758 7cbe
00000290: 7845 05bd d1b3 e8bd 89cd b2bd 8b98 11be
000002a0: dda9 54be 21fc 9dbd e23d 15bd 5fd9 873c
000002b0: 2714 21be b52e 2c3e 79ba 6bbe 0501 b5bc
000002c0: 6c8a 9d3d 9643 453e 2ebc 203e 2359 ebbc
000002d0: e9a3 fdbd bd3f b5bd c035 8ebe 80f0 033e
000002e0: 1a5e e9bc c7cd a5bd ca23 643c de73 1ebe
000002f0: c536 bdbd 07c7 333e 9556 b33d 9946 d43d
00000300: 4a8f d4be 9071 a1bc eee8 49bd 069b 9fbe
00000310: 8737 b5bd 8b76 8ebe 8029 233c cb77 84be
00000320: 0d44 9cbe 6ae0 f8be b981 08be b880 b7bd
00000330: 3801 41bd 85e7 3b3e d06c f13d 83ff 243d
00000340: 65ab 98bc 1477 d7bd ce35 18be 5d3c 7e3c
00000350: 90da 473d 7a09 42be 4a9e 073b 5f41 8c3d
00000360: 6169 843b 8ba7 e7bb b860 12bc 1057 c1bd
00000370: bbd9 80bc 9f4b c3bc fd81 b8bd 41c8 363d
00000380: 7336 0f3d 12fb 063e 766e 41bd 6849 393e
00000390: 4473 183e 2404 15bd e432 d53d 509a 843d
000003a0: 4b37 913c 30da 813e 18d5 b83e a3c2 ca3d
000003b0: 5e38 5d3e e368 b03d ffe1 7abd 8552 fabd
000003c0: e934 dcbd 2c2b 193c d5fd 11bc 05df 343d
000003d0: 78e6 c93e bd11 843d 4a86 6d3b 2a1f fbbd
000003e0: 6081 133e 91cb 5b3b 72a1 18be e320 873c
000003f0: 567e 033b f288 55bd 8045 db3d 38d9 893e

conv3.bias f4 [24]
0.01783237 -0.34189066 0.13560033 0.43847406 -0.10145165 -0.18967642 0.6445081 -0.06855838
0.12133779 -0.102480434 -0.13146107 -0.6609891 -0.1538272 -0.38283578 -0.29855728 -0.43231675
0.26227796 0.6909089 -0.30831033 -0.1419148 -0.2401209 0.2622463 0.172237 -0.11643783
00000000: 3115 923c 4b0c afbe d0da 0a3e ac7f e03e
00000010: e2c5 cfbd 893a 42be 7cfe 243f 5668 8cbd
00000020: f27f f83d 43e1 d1bd bb9d 06be 9536 29bf
00000030: e184 1dbe 0d03 c4be 80dc 98be 9f58 ddbe
00000040: 4c49 863e 68df 303f dada 9dbe 1d52 11be
00000050: 41e2 75be 2645 863e e55e 303e f576 eebd

bn3.weight f4 [24]
1.0 1.0 1.0 1.0 1.0 1.0 1.0 1.0
1.0 1.0 1.0 1.0 1.0 1.0 1.0 1.0
1.0 1.0 1.0 1.0 1.0 1.0 1.0 1.0
00000000: 0000 803f 0000 803f 0000 803f 0000 803f
00000010: 0000 803f 0000 803f 0000 803f 0000 803f
00000020: 0000 803f 0000 803f 0000 803f 0000 803f
00000030: 0000 803f 0000 803f 0000 803f 0000 803f
00000040: 0000 803f 0000 803f 0000 803f 0000 803f
00000050: 0000 803f 0000 803f 0000 803f 0000 803f

bn3.bias f4 [24]
0.0 0.0 0.0 0.0 0.0 0.0 0.0 0.0
0.0 0.0 0.0 0.0 0.0 0.0 0.0 0.0
0.0 0.0 0.0 0.0 0.0 0.0 0.0 0.0
00000000: 0000 0000 0000 0000 0000 0000 0000 0000
00000010: 0000 0000 0000 0000 0000 0000 0000 0000
00000020: 0000 0000 0000 0000 0000 0000 0000 0000
00000030: 0000 0000 0000 0000 0000 0000 0000 0000
00000040: 0000 0000 0000 0000 0000 0000 0000 0000
00000050: 0000 0000 0000 0000 0000 0000 0000 0000

bn3.running_mean f4 [24]
0.09133013 -0.024603426 -0.008505525 -0.05504615 0.0082416115 0.011940927 0.03416362 -0.11471361
0.05644531 -0.03239211 0.05833925 -0.011787101 0.012938443 0.061353177 0.079774745 0.06782385
0.047973074 0.0017073968 0.0030511995 0.018772904 0.05154069 0.014234188 0.0009913957 -0.033177562
00000000: 4b0b bb3d 208d c9bc c25a 0bbc 1278 61bd
00000010: d307 073c e1a3 433c 27ef 0b3d f8ee eabd
00000020: 3333 673d 97ad 04bd 23f5 6e3d af1e 41bc
00000030: c3fb 533c 784d 7b3d f160 a33d 3be7 8a3d
00000040: 6a7f 443d bbca df3a a2f6 473b a2c9 993c
00000050: 551c 533d 8336 693c b8f1 813a 32e5 07bd

bn3.running_var f4 [24]
0.92698276 0.9084991 0.90530545 0.9149978 0.91146624 0.9212546 0.92018825 0.9182598
0.914511 0.9189056 0.9148901 0.91739136 0.9208707 0.9173027 0.9143732 0.9138498
0.9123565 0.9104048 0.9273904 0.9098818 0.9217644 0.92316455 0.9166056 0.91067576
00000000: be4e 6d3f 6693 683f 19c2 673f 4c3d 6a3f
00000010: da55 693f 57d7 6b3f 7591 6b3f 1313 6b3f
00000020: 651d 6a3f 663d 6b3f 3d36 6a3f 29da 6a3f
00000030: 2fbe 6b3f 5ad4 6a3f 5d14 6a3f 0ff2 693f
00000040: 3290 693f 4a10 693f 7569 6d3f 03ee 683f
00000050: c0f8 6b3f 8354 6c3f aaa6 6a3f 0c22 693f

fc1.weight f4 [120, 96]
-0.1868517 0.0045459745 0.123967215 -0.20826422 0.04600087 -0.4785787 0.09650463 -0.1550164
-0.12695445 -0.13938615 -0.18691488 -0.35739884 0.13284701 -0.075797856 0.008370082 0.03128149
-0.45263493 -0.6194168 -0.5156785 -0.48585606 -0.22651339 -0.19173585 0.010480876 0.08253916
0.008670819 -0.013282919 0.1700123 -0.04944247 0.17345747 -0.21121989 -0.11163317 -0.022020787
-0.16451126 -0.22235824 -0.18229108 -0.12946017 -0.008129758 0.1123974 -0.011959099 -0.06461226
0.49181324 -0.27184242 -0.14264488 -0.13462342 0.06334241 0.029817402 -0.12434803 -0.30528992
0.15274881 0.11865098 -0.050920617 -0.21879037 0.30401313 0.09841635 0.0039091255 0.2932799
-0.046950456 -0.15037622 0.04392294 -0.0684721 -0.1059884 -0.13390051 0.028347278 0.010785595
0.074106745 -0.0036969138 -0.07150302 0.20467629 -0.024933292 -0.07547412 0.05388746 0.058059346
-0.1094304 -0.0024070041 -0.22868618 -0.44394577 -0.19245394 -0.24478419 0.21267769 0.32548112
0.14352445 0.16050196 0.19144668 0.18474312 -0.014843996 0.030896751 0.110019706 -0.11198741
0.33135983 0.20256194 -0.14606743 -0.26059827 0.19519308 0.18524961 0.19577552 0.12800455
0.1383215 -0.10786252 -0.11300158 -0.22424327 -0.021929463 -0.07763363 -0.036865372 -0.115959704
-0.11989378 -0.10969709 0.04251593 -0.08927755 -0.035824843 -0.21730177 -0.287494 -0.243468
0.052727815 -0.121749684 0.23766485 0.21221408 -0.08978101 -0.102004394 0.09798607 -0.04730581
-0.20032386 -0.55251515 -0.34605703 -0.49675784 -0.046283323 -0.06810823 -0.019077953 -0.1975576
0.15604894 0.12017058 -0.1274151 -0.049534306 -0.043251693 0.046209164 0.012424104 0.05573755
0.30245072 0.15463634 0.09628898 -0.057846654 -0.2480737 -0.27698797 0.06673313 0.0006282101
-0.060065843 0.21523774 0.010149665 0.039844055 -0.22961679 -0.072747305 -0.03654155 0.06275981
-0.012716933 0.19152164 0.010468042 0.12543152 -0.2655072 -0.02827537 -0.092752956 -0.023563052
-0.0010133092 0.014809299 0.14964259 -0.0574278 -0.03588949 -0.15344869 -0.15618879 -0.2930965
0.15692572 0.21732809 -0.035377946 0.20197718 0.20558003 0.17968881 0.039919555 0.29162133
-0.16243555 -0.6823248 -0.4483826 0.020650966 -0.2296473 -0.0783367 0.10874181 0.10342785
0.270896 0.041593164 0.049332034 0.07688622 0.18546441 0.3248874 0.09692593 0.10678603
-0.108936936 -0.19087939 0.19234727 0.19595568 -0.14573993 -0.03975215 0.15701628 -0.003999367
-1.178637 -0.45125115 -0.15219142 -0.024745176 0.20392899 -0.0788095 0.046774656 0.05768104
-0.058552988 0.0684126 -0.08499899 -0.09104868 0.11458204 0.178256 0.1469742 0.23693633
-0.16799276 -0.1404192 -0.13938296 0.3099647 -0.20123704 -0.052298762 -0.116945066 -0.09837873
-0.48621204 -0.095988385 -0.0833687 0.1362098 -0.06539713 0.08967638 0.06384145 -0.058989003
0.19182688 0.25225353 0.24724557 0.07641707 -0.02241391 -0.053505834 0.26364163 0.12376166
-0.8679795 -0.9936667 -0.4456608 -0.15220556 0.010786057 0.009272318 0.073801614 0.13910922
-0.26026586 -0.32640266 -0.2904073 -0.17643325 -0.27963436 -0.35805562 -0.21348383 -0.09111317
00000000: 0d56 3fbe 66f6 943b 86e2 fd3d 3743 55be
00000010: 696b 3c3d 4408 f5be 38a4 c53d 9fbc 1ebe
00000020: 5900 02be 3ebb 0ebe 9d66 3fbe fbfc b6be
00000030: 0c09 083e e83b 9bbd ab22 093c 0521 003d
00000040: c4bf e7be 1992 1ebf 8203 04bf 20c2 f8be
00000050: 20f3 67be 6756 44be fbb7 2b3c 4b0a a93d
00000060: 0d10 0e3c 9aa0 59bc b417 2e3e 3084 4abd
00000070: d69e 313e 074a 58be ee9f e4bd f064 b4bc
00000080: a475 28be e1b1 63be 83aa 3abe 3591 04be
00000090: ad32 05bc 9c30 e63d 19f0 43bc 6f53 84bd
000000a0: f2ce fb3e ee2e 8bbe 8011 12be b9da 09be
000000b0: aab9 813d a043 f43c 2eaa febd f64e 9cbe
000000c0: 2f6a 1c3e 49ff f23d 2392 50bd 950a 60be
000000d0: 9ca7 9b3e 838e c93d 1f18 803b c828 963e
000000e0: 1f4f 40bd 39fc 19be 8ae8 333d 1a3b 8cbd
000000f0: 7210 d9bd 371d 09be 8d38 e83c 10b6 303c
00000100: 47c5 973d ec47 72bb 2d70 92bd a996 513e
00000110: e740 ccbc 2d92 9abd 19b9 5c3d a3cf 6d3d
00000120: 0c1d e0bd d4be 1dbb b62c 6abe dc4c e3be
00000130: a512 45be b5a8 7abe 2ec8 593e 76a5 a63e
00000140: 13f8 123e a05a 243e 990a 443e 4d2d 3d3e
00000150: 3b34 73bc 2f1b fd3c 0352 e13d a859 e5bd
00000160: ffa7 a93e 666c 4f3e b392 15be 236d 85be
00000170: b2e0 473e 13b2 3d3e 6179 483e a013 033e
00000180: 27a4 0d3e 06e7 dcbd 5f6d e7bd 07a0 65be
00000190: 6ba5 b3bc 61fe 9ebd 2500 17bd 487c edbd
000001a0: df8a f5bd dea8 e0bd 2f25 2e3d 26d7 b6bd
000001b0: 12bd 12bd 5b84 5ebe 6a32 93be ad4f 79be
000001c0: 1ff9 573d e657 f9bd 6a5e 733e a64e 593e
000001d0: 1bdf b7bd aee7 d0bd ecac c83d bdc3 41bd
000001e0: b321 4dbe a271 0dbf 632e b1be 0b57 febe
000001f0: 9593 3dbd 547c 8bbd 5e49 9cbc 8a4c 4abe
00000200: 4bcb 1f3e fe1b f63d 1b79 02be 7ce4 4abd
00000210: b028 31bd d245 3d3d 788e 4b3c 0f4d 643d
00000220: d2da 9a3e fd58 1e3e 2833 c53d 9df0 6cbd
00000230: 0807 7ebe 5ed1 8dbe 61ab 883d 77ae 243a
00000240: 9a07 76bd 4867 5c3e c84a 263c 8533 233d
00000250: aa20 6bbe 8afc 94bd 98ac 15bd 3788 803d
00000260: af5a 50bc 401e 443e 2782 2b3c 1f71 003e
00000270: 8ff0 87be c0a1 e7bc 43f5 bdbd 4d07 c1bc
00000280: 04d1 84ba b4a2 723c e83b 193e 6a39 6bbd
00000290: dc00 13bd a721 1dbe f4ef 1fbe bf10 96be
000002a0: 23b1 203e 418b 5e3e 77e8 10bd 1bd3 4e3e
000002b0: 9283 523e 5800 383e b082 233d 644f 953e
000002c0: 8155 26be d7ac 2ebf 6792 e5be 372c a93c
000002d0: a928 6bbe fe6e a0bd 07b4 de3d fbd1 d33d
000002e0: e1b2 8a3e 985d 2a3d 6310 4a3d 8676 9d3d
000002f0: 62ea 3d3e a457 a63e 1a81 c63d a2b2 da3d
00000300: 541a dfbd e375 43be aff6 443e 9ba8 483e
00000310: d93c 15be 27d3 22bd e0c8 203e 1f0d 83bb
00000320: 94dd 96bf 640a e7be 11d8 1bbe 65b6 cabc
00000330: c3d2 503e e066 a1bd c896 3f3d f442 6c3d
00000340: 42d5 6fbd e81b 8c3d f313 aebd bb77 babd
00000350: fda9 ea3d be88 363e 6880 163e 709f 723e
00000360: 4b06 2cbe 0dca 0fbe 68ba 0ebe b1b3 9e3e
00000370: 1511 4ebe 3a37 56bd e580 efbd ca7a c9bd
00000380: c9f0 f8be 8f95 c4bd 36bd aabd 957a 0b3e
00000390: eeee 85bd 40a8 b73d 4ebf 823d 749e 71bd
000003a0: 446e 443e 6027 813e f12d 7d3e 8e80 9c3d
000003b0: 609d b7bc ef28 5bbd 09fc 863e c176 fd3d
000003c0: e833 5ebf f160 7ebf a72d e4be c6db 1bbe
000003d0: 01b8 303c ecea 173c 4d25 973d a672 0e3e
000003e0: 9141 85be 401e a7be 44b0 94be ebaa 34be
000003f0: 3c2c 8fbe 1153 b7be 819b 5abe 8b99 babd

fc1.bias f4 [120]
0.06400958 0.18992339 -0.09396635 0.15077077 -0.27892026 0.26387975 0.5600233 0.18146561
0.43276772 0.4006258 0.35066065 -0.273804 -0.57149655 -0.5793167 0.40681082 0.42967516
0.45565447 0.55252355 0.5617208 -0.40150362 -0.2538703 -0.08569687 0.1981587 0.11366816
0.38421497 -0.21103749 0.226754 -0.6452366 0.28908136 0.5824607 0.5557418 -0.34587577
-0.21067905 0.5470729 0.4756379 0.38680553 0.4328699 0.4674359 -0.4050579 0.009182853
0.15150492 -0.042119402 -0.42022884 -0.52163815 -0.17178737 -0.21051359 0.27162096 -0.09732843
-0.3324367 0.38578227 0.16835122 0.6268898 -0.19302727 -0.15634967 -0.48977798 0.53853005
0.37396652 0.43967682 0.20685704 0.1455776 -0.5606636 -0.012002895 -0.47826117 0.2660353
0.17479387 0.2745199 0.42282772 -0.048069764 0.31635234 0.3291478 -0.26499254 -0.07413814
0.37645152 0.20332098 0.017821837 0.24616657 -0.18977775 0.5634477 0.18214756 0.15483156
-0.2731986 -0.047754955 0.057252433 -0.14838602 0.18132484 -0.106265865 0.049151234 -0.23942174
0.18130545 -0.18775634 0.21151498 0.19488652 0.26127085 0.43405536 -0.4453522 0.15113102
0.088219635 0.30739903 0.45648485 -0.007413664 0.01853853 -0.4477558 0.43661186 -0.49140424
-0.58028674 0.15086366 -0.082306355 0.52110696 -0.20973393 -0.099217586 -0.17945051 -0.08043932
0.47459853 -0.36096662 0.22276641 0.14974353 0.17354043 0.14443512 0.3949863 -0.027730303
00000000: 7417 833d 477b 423e 6e71 c0bd a763 1a3e
00000010: a3ce 8ebe 3f1b 873e b05d 0f3f 1fd2 393e
00000020: bb93 dd3e d31e cd3e cb89 b33e 0a30 8cbe
00000030: 994d 12bf 194e 14bf 8249 d03e 62fe db3e
00000040: 8b4b e93e 2f72 0d3f efcc 0f3f e291 cdbe
00000050: 4afb 81be d781 afbd 1dea 4a3e daca e83d
00000060: d3b7 c43e 361a 58be 3332 683e 3a2e 25bf
00000070: 7902 943e 251c 153f 1845 0e3f a116 b1be
00000080: 40bc 57be f80c 0c3f d086 f33e 600b c63e
00000090: 20a1 dd3e c253 ef3e c063 cfbe ad73 163c
000000a0: 1b24 1b3e 6585 2cbd 3c28 d7be 148a 05bf
000000b0: 07e9 2fbe e090 57be e711 8b3e 2154 c7bd
000000c0: 2535 aabe 4185 c53e 4364 2c3e da7b 203f
000000d0: f1a8 45be 211a 20be 2ec4 fabe 1bdd 093f
000000e0: 8a78 bf3e 521d e13e 55d2 533e 4b12 153e
000000f0: a687 0fbf caa7 44bc a6de f4be c735 883e
00000100: 2afd 323e df8d 8c3e e07c d83e cde4 44bd
00000110: eff8 a13e 0f86 a83e 1aad 87be bdd5 97bd
00000120: 41be c03e 6033 503e 1aff 913c 1713 7c3e
00000130: 1955 42be 1c3e 103f e484 3a3e 2a8c 1e3e
00000140: b0e0 8bbe b39a 43bd 8781 6a3d 81f2 17be
00000150: 38ad 393e eba1 d9bd ce52 493d f92a 75be
00000160: 23a8 393e 3343 40be 6297 583e 5590 473e
00000170: 4bc5 853e 813c de3e 3405 e4be 17c2 1a3e
00000180: 7fac b43d 6863 9d3e 62b8 e93e 52ee f2bb
00000190: 1ede 973c 4040 e5be 978b df3e 5699 fbbe
000001a0: ac8d 14bf 017c 1a3e 3c90 a8bd 4467 053f
000001b0: 7ec4 56be 9732 cbbd e0c1 37be 5fbd a4bd
000001c0: 94fe f23e 9ed0 b8be e11c 643e 5e56 193e
000001d0: 95b4 313e cde6 133e a53b ca3e a92a e3bc

fc2.weight f4 [84, 120]
0.30674818 0.11682345 0.12418928 -0.6710645 0.14080617 -0.3259189 0.15128934 0.1221541
0.20828688 -0.1276958 0.22409086 0.10381679 -0.07872898 -0.13615167 -0.09798938 -0.17369375
0.1579945 0.030558012 -0.060402784 0.008865966 0.07261922 0.08588328 -0.058767658 -0.3878579
0.008702592 -0.088643424 -0.11593993 -0.02635827 0.113369696 -0.0725502 0.34931365 0.1653361
-0.029098295 0.2352926 -0.17232563 -0.111281306 -0.038035437 -0.17925726 -0.3548713 0.09309114
0.101350255 -0.1257127 -0.11485971 0.07606492 -0.2044763 0.15927866 0.08242712 0.10696636
-0.12577556 0.07846476 -0.03539194 0.016791742 -0.15733527 -0.07381161 0.1281354 0.06561855
0.16942218 -0.52930194 0.08666893 0.072665825 -0.15876755 0.022824261 0.02206128 -0.18966895
-0.098418355 0.14018692 0.17048231 0.06689291 0.0010095771 0.06943457 0.0842491 -0.0051821703
-0.13920385 -0.041925892 0.002907945 0.0532928 0.022648564 0.049311746 0.09118949 0.4489421
0.030019853 0.08825012 -0.07153247 -0.0041097933 0.028229898 0.15047254 -0.19639418 0.28368288
0.06283588 0.11630672 -0.02144613 0.022834232 0.054624055 -0.12648705 0.32097057 0.26856452
0.021483947 0.092685 0.06561593 -0.03705266 -0.50969106 0.23198411 0.011067068 -0.107430905
0.08674413 -0.0333913 0.06800972 0.13289587 -0.033936933 -0.06550351 -0.13781025 0.13225874
0.17425774 -0.18979505 -1.0505315 0.15384933 -1.0232629 -0.16282968 0.0133164665 0.058019005
0.20463464 0.0050597494 0.14942618 -0.0717675 0.096137784 0.12811422 -0.027547222 0.011242025
-0.13136193 -0.16120711 0.40949216 -0.048689295 0.08235369 -0.1527553 -0.056919713 -0.035790164
0.10789387 -0.05636363 -0.42380783 -0.27558404 -0.3731581 -0.4569929 0.09312878 -0.040748272
0.040974714 -0.04935172 0.054595247 -0.2665828 0.07663917 -0.12475751 -0.14634624 0.10030312
0.0034813392 -0.00028106585 -0.040753193 0.032977965 0.11656997 0.014202198 0.0043890197 -0.056606833
0.16740797 -0.035945777 -0.27468437 0.053036984 -0.08602726 -0.20367973 0.18739812 -0.4368904
-0.0037644026 0.018241033 -0.5256693 -0.01648452 -0.50764394 -0.05482097 0.063624494 0.0196182
0.2654122 -0.12843867 -0.06725403 -0.009868398 0.0327141 -0.13761379 -0.28159595 -0.15746638
-0.7706909 0.021151764 -0.05686592 -0.13816075 -0.2027026 0.114665434 0.031967007 0.120405674
0.088249706 0.022032328 0.13296032 0.1301631 0.14131464 0.19199815 -0.22824936 0.532614
-0.82521856 0.00027500305 0.025811857 0.10833047 -0.27686304 -0.008183218 -0.099500746 0.32566392
-0.04503881 -0.20187363 0.03912356 -0.026504187 0.3461213 0.17872311 -0.29886317 -0.19889104
0.030519972 0.042741485 0.087310255 -0.23411515 -0.088515066 -0.035515018 -0.08274204 0.082046025
-0.15774636 -0.047925893 -0.13090338 0.09347757 -0.03825882 -0.1445776 0.053007387 -0.069485836
-0.3797985 0.08832923 -0.09509426 -0.13494577 0.02275144 -0.0066331057 -0.024346257 0.034317378
-0.12481282 -0.01524334 -0.4079669 -0.047808606 -0.17441449 0.009081253 0.08479074 -0.3271808
0.11901762 -0.06436937 -0.41873607 -0.25541434 -0.045706023 -0.10628298 -0.09002847 -0.030352395
00000000: 190e 9d3e 2241 ef3d f356 fe3d e2ca 2bbf
00000010: 7e2f 103e d8de a6be 98eb 1a3e ee2b fa3d
00000020: 2849 553e b0c2 02be 1378 653e e69d d43d
00000030: a93c a1bd 586b 0bbe a8ae c8bd c6dc 31be
00000040: 4fc9 213e cc54 fa3c e968 77bd 8f42 113c
00000050: 63b9 943d 93e3 af3d 5bb6 70bd 5095 c6be
00000060: 5195 0e3c af8a b5bd ea71 edbd 4ced d7bc
00000070: 5f2e e83d 3395 94bd 3dd9 b23e de4d 293e
00000080: 8c5f eebc 8bf0 703e 2176 30be 74e7 e3bd
00000090: 0ccb 1bbd 378f 37be b1b1 b5be 91a6 be3d
000000a0: b990 cf3d d4ba 00be 913b ebbd edc7 9b3d
000000b0: 3c62 51be f219 233e 8dcf a83d 2e11 db3d
000000c0: 4fcb 00be 22b2 a03d 24f7 10bd d68e 893c
000000d0: 7f1c 21be 8b2a 97bd ed35 033e 0563 863d
000000e0: 027d 2d3e 5580 07bf 7b7f b13d d2d1 943d
000000f0: f693 22be f2f9 ba3c dcb9 b43c 9438 42be
00000100: 908f c9bd 298d 0f3e ea92 2e3e 26ff 883d
00000110: c953 843a b633 8e3d cb8a ac3d 32cf a9bb
00000120: 748b 0ebe 7cba 2bbd 3993 3e3b 8d49 5a3d
00000130: 7b89 b93c 1dfb 493d 8ec1 ba3d bddb e53e
00000140: 32ec f53c 7bbc b43d 9e7f 92bd 72ab 86bb
00000150: 6342 e73c 7915 1a3e 8e1b 49be e23e 913e
00000160: 19b0 803d 3832 ee3d cbaf afbc db0e bb3c
00000170: 79bd 5f3d d285 01be 4156 a43e 4a81 893e
00000180: 1aff af3c a2d1 bd3d a561 863d 88c4 17bd
00000190: 1d7b 02bf 3e8d 6d3e a652 353c bc04 dcbd
000001a0: e8a6 b13d 51c5 08bd ae48 8b3d db15 083e
000001b0: 7401 0bbd b426 86bd 211e 0dbe d66e 073e
000001c0: 9f70 323e a259 42be d177 86bf ae8a 1d3e
000001d0: 47fa 82bf d3bc 26be 4f2d 5a3c 56a5 6d3d
000001e0: be8b 513e 41cc a53b 2d03 193e d7fa 92bd
000001f0: e3e3 c43d 6030 033e b6aa e1bc 7830 383c
00000200: be83 06be 7a13 25be f5a8 d13e 6d6e 47bd
00000210: 0da9 a83d e36b 1cbe a524 69bd b598 12bd
00000220: 76f7 dc3d 8ddd 66bd 57fd d8be 5a19 8dbe
00000230: 940e bfbe f9fa e9be 4dba be3d a9e7 26bd
00000240: 1ad5 273d 0725 4abd 449f 5f3d 8a7d 88be
00000250: fff4 9c3d de80 ffbd cadb 15be b96b cd3d
00000260: 2e27 643b 055c 93b9 d2ec 26bd e713 073d
00000270: 3dbc ee3d 56b0 683c c4d1 8f3b 91dc 67bd
00000280: ff6c 2b3e e13b 13bd 6ea3 8cbe 4f3d 593d
00000290: 0f2f b0bd 6b91 50be 4be5 3f3e 19b0 dfbe
000002a0: 32b4 76bb 386e 953c 4392 06bf 8b0a 87bc
000002b0: f4f4 01bf f48b 60bd 8f4d 823d 59b6 a03c
000002c0: 1ce4 873e 6d85 03be 7bbc 89bd 10af 21bc
000002d0: 38ff 053d a1ea 0cbe 582d 90be de3e 21be
000002e0: 004c 45bf 7746 ad3c 3dec 68bd 037a 0dbe
000002f0: 4591 4fbe b6d5 ea3d d6ef 023d 4097 f63d
00000300: 43bc b43d 247d b43c c026 083e 7a49 053e
00000310: c9b4 103e 2a9b 443e 33ba 69be 6459 083f
00000320: 8641 53bf 492e 9039 6373 d33c 5edc dd3d
00000330: fec0 8dbe e712 06bc 0cc7 cbbd 6cbd a63e
00000340: 9e7a 38bd f6b7 4ebe 0740 203d 4f1f d9bc
00000350: d036 b13e 3103 373e 9804 99be 18aa 4bbe
00000360: 0505 fa3c b211 2f3d b8cf b23d e2bb 6fbe
00000370: 6347 b5bd 3278 11bd a974 a9bd bf07 a83d
00000380: 4388 21be f14d 44bd 890b 06be 2b71 bf3d
00000390: 48b5 1cbd 260c 14be 461e 593d 974e 8ebd
000003a0: f374 c2be f5e5 b43d c8c0 c2bd 392f 0abe
000003b0: 3a61 ba3c 865a d9bb cd71 c7bc 6190 0c3d
000003c0: dd9d ffbd 34bf 79bc 0ae1 d0be f5d2 43bd
000003d0: b699 32be 89c9 143c c4a6 ad3d 3e84 a7be
000003e0: 83bf f33d 17d4 83bd 9364 d6be abc5 82be
000003f0: 3d36 3bbd e4aa d9bd d960 b8bd 96a5 f8bc

fc2.bias f4 [84]
0.46029365 0.60623014 0.53466815 0.5559394 0.20724186 0.20188683 0.3426707 0.37267372
0.6120222 0.44882956 0.61752224 0.87503743 -0.017473849 0.49273363 0.86521953 0.69413173
0.35565412 0.3485742 0.47028112 0.5336046 -0.01568475 0.14868268 0.5416447 0.39868203
-0.77630717 0.66750747 0.7684193 0.3661679 0.672443 0.6664085 0.3142485 0.47002444
-0.22995546 0.6677356 0.48948795 0.1574473 0.25600144 0.45673686 0.49165076 0.45614365
0.17547537 0.8426574 0.764139 0.31120604 0.5106779 0.5792493 0.4467636 0.67489177
0.7421802 0.19431967 0.5937417 0.2549904 0.1526003 0.053467225 -0.37605697 0.4659199
0.48903993 0.6858012 0.3477119 0.66393965 0.08720249 0.40565598 0.5959434 0.44928786
0.253205 0.5104174 0.21135034 0.35967603 0.36274058 0.5440408 0.44320634 0.4650594
0.1412059 0.60535496 0.5209692 0.41861212 0.6011738 -0.0015537101 0.11087318 0.80207354
0.85894185 0.57905895 0.66567665 0.39018938
00000000: 9cab eb3e e631 1b3f 03e0 083f 0b52 0e3f
00000010: 3637 543e 6cbb 4e3e 8972 af3e 17cf be3e
00000020: 7dad 1c3f fdcc e53e f015 1e3f 7402 603f
00000030: 5125 8fbc 9547 fc3e 077f 5d3f 9eb2 313f
00000040: 4c18 b63e 5178 b23e b0c8 f03e 509a 083f
00000050: 4e7d 80bc 4640 183e 3aa9 0a3f 0d20 cc3e
00000060: 11bc 46bf c5e1 2a3f 21b7 443f 5c7a bb3e
00000070: 3925 2c3f bf99 2a3f 2ee5 a03e 0ba7 f03e
00000080: 7279 6bbe b8f0 2a3f 2a9e fa3e dd39 213e
00000090: 9f12 833e 6ad9 e93e a6b9 fb3e a98b e93e
000000a0: d1af 333e 65b8 573f 9d9e 433f 6656 9f3e
000000b0: c9bb 023f af49 143f 33be e43e b5c5 2c3f
000000c0: 86ff 3d3f bcfb 463e 75ff 173f 1a8e 823e
000000d0: 4143 1c3e 7300 5b3d 8a8a c0be 0e8d ee3e
000000e0: 7163 fa3e ab90 2f3f 4b07 b23e f3f7 293f
000000f0: 3897 b23d 24b2 cf3e bf8f 183f 0f09 e63e
00000100: 16a4 813e b7aa 023f 396c 583e 7527 b83e
00000110: 22b9 b93e 4246 0b3f f1eb e23e 441c ee3e
00000120: 4898 103e 8bf8 1a3f 3d5e 053f 5454 d63e
00000130: 87e6 193f dca5 cbba 7a11 e33d b154 4d3f
00000140: 9de3 5b3f 353d 143f c969 2a3f e7c6 c73e

fc3.weight f4 [10, 84]
0.088058814 0.034267385 -0.15982588 -0.007746892 0.1080048 0.10754959 -0.11880652 0.1334966
0.1266107 0.118152 0.106708325 0.16313647 0.081184305 0.11304424 0.0058881226 -0.17666252
0.06216676 -0.12838732 0.017405083 0.026262203 -0.23286894 0.1573346 -0.21981426 0.07446609
-0.23429126 0.18676868 -0.1798649 0.036130022 -0.09674329 -0.097859874 -0.02055015 0.21733527
0.17846763 0.025244579 0.05689753 0.045309026 -0.1858187 0.13731378 -0.022925068 -0.21718062
-0.14344029 -0.43671235 0.20748483 -0.14737304 0.095619366 -0.30348656 0.009653667 0.12932493
-0.07814489 -0.0400713 -0.2389388 -0.26779467 -0.056264192 -0.05353331 0.16276027 0.16403703
-0.04666343 -0.10998305 -0.27828804 -0.20070852 -0.14973283 0.06348759 0.1050627 -0.18868448
0.09409949 -0.22961912 -0.11896795 -0.08225627 -0.13003005 0.17505434 0.12239269 0.09882606
-0.009030419 -0.026040759 0.10489181 0.11808416 -0.029926838 -0.11053426 0.10333787 0.13498244
-0.3119454 -0.18485941 -0.51398283 0.067259915 0.09544153 0.08434444 -0.107208945 -0.09020502
0.12780547 0.17325698 -0.13250259 -0.17272557 -0.21342298 0.18235826 0.026307577 -0.42601368
0.059685953 0.19091475 -0.5118405 0.2360489 0.17818971 -0.14630692 -0.50122756 -0.38560572
0.050115366 0.051415402 -0.09542206 -0.05191309 0.028693698 0.009405804 -0.45481685 0.13884726
0.08600932 0.08172805 0.22753997 -0.05151702 -0.011825751 -0.37139088 0.118919775 0.14105739
0.0018459329 0.13079831 -0.25650877 -0.16466549 -0.07107657 -0.20223226 -0.34443605 0.13313183
0.07734425 -0.15838355 0.2023546 -0.043823954 -0.38373384 0.18554442 -0.16023304 -0.26556268
-0.016780958 -0.040772166 0.16007598 0.09060781 -0.027026715 -0.17510125 -0.28056693 -0.100314565
0.23240598 0.0666941 0.07434895 0.09509397 -0.17997582 -0.105459854 0.039774604 0.07706138
0.04000819 0.18759388 -0.20065448 0.0009073665 0.15142438 -0.119035505 -0.187868 0.14641677
-0.26081297 0.1457413 0.14100973 -0.072125174 -0.26183456 0.074048564 -0.21360314 -0.021318294
0.14128368 0.03100923 -0.08290176 0.1620368 0.049812768 -0.28148556 -0.07400734 -0.036058966
-0.12676772 -0.16387561 0.12817632 0.104158774 0.052079104 -0.09184172 0.14926536 -0.018495332
-0.21362063 -0.0069496823 0.111011215 -7.1684226e-05 -0.28984568 0.21224454 -0.100621365 -0.20966108
-0.14891823 -0.0889847 0.0025305082 -0.25026014 0.041121457 -0.2006045 0.0012675141 -0.016996203
-0.101643965 0.06248417 0.11005757 -0.06309057 0.094803296 -0.33384293 0.17618234 0.11888394
-0.09794855 0.21112293 0.03968655 -0.069511555 0.101106346 0.23519035 -0.1061301 -0.16151087
0.17524001 -0.08457409 0.056976356 -0.020781279 -0.079788506 -0.03842831 -0.17318329 0.080625
0.0063569904 0.053853378 -0.16098265 -0.2237004 -0.013978717 -0.18807402 -0.18658021 0.046798296
-0.10853259 -0.10031408 0.064253286 -0.3284292 -0.058036823 0.10565324 0.14607088 -0.32973605
0.094486915 -0.040423155 0.19745688 0.12991947 -0.070190445 0.13251863 0.046574213 -0.19380645
-0.08422236 -0.0855537 0.1426005 0.044736847 -0.106692955 -0.2604915 0.16071206 0.11474177
00000000: 2e58 b43d f55b 0c3d 65a9 23be a4d9 fdbb
00000010: 9f31 dd3d f642 dc3d d550 f3bd 55b3 083e
00000020: 3ca6 013e adf9 f13d e589 da3d 3f0d 273e
00000030: f543 a63d bd83 e73d 27f1 c03b 05e7 34be
00000040: 93a2 7e3d f777 03be 1b95 8e3c d523 d73c
00000050: 3275 6ebe 521c 213e fd16 61be ad81 983d
00000060: 0cea 6fbe 4a40 3f3e 812e 38be 13fd 133d
00000070: 5921 c6bd c26a c8bd ca58 a8bc 238d 5e3e
00000080: 38c0 363e b8cd ce3c 620d 693d f595 393d
00000090: 4247 3ebe fc9b 0c3e 5acd bbbc 9964 5ebe
000000a0: 03e2 12be c398 dfbe e776 543e f5e8 16be
000000b0: 16d4 c33d 9762 9bbe 6a2a 1e3c c16d 043e
000000c0: 6e0a a0bd ce21 24bd 5fac 74be 621c 89be
000000d0: 4875 66bd be45 5bbd a1aa 263e 53f9 273e
000000e0: 2722 3fbd cb3e e1bd c57b 8ebe 8986 4dbe
000000f0: 9053 19be c805 823d 1d2b d73d 8136 41be
00000100: 3cb7 c03d 4621 6bbe 78a5 f3bd fa75 a8bd
00000110: 9926 05be 7241 333e 05a9 fa3d 5165 ca3d
00000120: 53f4 13bc 6e53 d5bc 84d1 d63d 1cd6 f13d
00000130: 2129 f5bc c95f e2bd cea2 d33d d638 0a3e
00000140: 4fb7 9fbe c94b 3dbe 6194 03bf 91bf 893d
00000150: d976 c33d c7bc ac3d 5d90 dbbd 69bd b8bd
00000160: 70df 023e 476a 313e c2ae 07be f9de 30be
00000170: 8e8b 5abe 20bc 3a3e fd82 d73c 771e dabe
00000180: 4279 743d 287f 433e fb07 03bf ceb6 713e
00000190: 5d77 363e 7bd1 15be 7350 00bf 1d6e c5be
000001a0: c545 4d3d f598 523d a46c c3bd d2a2 54bd
000001b0: 0c0f eb3c cd1a 1a3c c1dd e8be fa2d 0e3e
000001c0: a825 b03d 0961 a73d 3d00 693e 8303 53bd
000001d0: cbc0 41bc f226 bebe 368c f33d 5971 103e
000001e0: 3bf3 f13a feef 053e 1e55 83be 129e 28be
000001f0: 9890 91bd f915 4fbe ec59 b0be b653 083e
00000200: aa66 9e3d 4c2f 22be 0b36 4f3e bf80 33bd
00000210: c378 c4be 5bff 3d3e 2114 24be d5f7 87be
00000220: 3878 89bc b700 27bd f5ea 233e 9690 b93d
00000230: 2167 ddbc be4d 33be 78a6 8fbe b971 cdbd
00000240: d5fb 6d3e eb96 883d 4344 983d a1c0 c23d
00000250: 954b 38be 56fb d7bd b2ea 223d 5bd2 9d3d
00000260: a1df 233d 9c18 403e 5e78 4dbe 56dc 6d3a
00000270: fe0e 1b3e e3c8 f3bd 7860 40be 47ee 153e
00000280: 4789 85be 353d 153e db64 103e 5db6 93bd
00000290: 2e0f 86be c6a6 973d c8ba 5abe b4a3 aebc
000002a0: abac 103e 1207 fe3c 66c8 a9bd faec 253e
000002b0: 7908 4c3d e01e 90be 2991 97bd 91b2 13bd
000002c0: 66cf 01be 02cf 27be a740 033e 3251 d53d
000002d0: e650 553d 8317 bcbd 05d9 183e 8683 97bc
000002e0: 5ebf 5abe 29ba e3bb d959 e33d 2d55 96b8
000002f0: a766 94be a256 593e 9312 cebd 65b1 56be
00000300: 057e 18be 9c3d b6bd e2d6 253b 1922 80be
00000310: f96e 283d 446b 4dbe b722 a63a 9f3b 8bbc
00000320: b62a d0bd 67ef 7f3d dd65 e13d a135 81bd
00000330: 3b28 c23d 76ed aabe 2569 343e 6c79 f33d
00000340: 4099 c8bd 9c30 583e 5d8e 223d 135c 8ebd
00000350: d810 cf3d bdd5 703e bd5a d9bd 1b63 25be
00000360: 1e72 333e 2e35 adbd 0a60 693d 803d aabc
00000370: 2868 a3bd 0167 1dbd f656 31be b81e a53d
00000380: 4d4e d03b 5c95 5c3d a3d8 24be b811 65be
00000390: fd06 65bc 7a96 40be e20e 3fbe 92af 3f3d
000003a0: 5646 debd 7871 cdbd 3a97 833d df27 a8be
000003b0: 05b8 6dbd ba60 d83d 9b93 153e 2ad3 a8be
000003c0: 5b82 c13d c092 25bd 2332 4a3e 9c09 053e
000003d0: 02c0 8fbd f7b2 073e 9ac4 3e3d 3375 46be
000003e0: c67c acbd c736 afbd de05 123e fc3d 373d
000003f0: d681 dabd 245f 85be b491 243e bcfd ea3d

fc3.bias f4 [10]
-0.044848572 -0.22549687 0.07016159 0.2647821 0.042917956 -0.22304082 -0.039841067 0.02286811
-0.07228596 0.090405755
00000000: 23b3 37bd a7e8 66be e1b0 8f3d 8591 873e
00000010: bdca 2f3d d064 64be 6330 23bd e755 bb3c
00000020: a90a 94bd a726 b93d
