CIFAR10_v1_100_EPOCHS.pth (torch, 117266 bytes, 12 tensors)

conv1.weight f4 [12, 3, 3, 3]
000000 3f 8a 27 be ec 20 04 3e 9e 7c 61 bc fe 73 d4 3e
       -0.1636133 0.12903184 -0.013762621 0.41494745
000010 87 79 84 bc de e9 65 bd c6 ff 28 be 02 94 d3 bd
       -0.01617123 -0.056131236 -0.1650382 -0.103309646
000020 ff 2d 93 bd ea 96 22 be 6e 09 60 3e 0c 4d 95 3e
       -0.071865074 -0.15877882 0.21878597 0.29160345
000030 b6 44 f3 3e 41 31 80 bd a0 68 99 3d de 94 54 be
       0.4751336 -0.062593944 0.07490659 -0.20759913
000040 4a 97 df be da 7b 88 be 58 15 94 3c 4b b1 31 3e
       -0.43670112 -0.2665699 0.018076584 0.17352788
000050 15 32 1a be 9d c4 89 3e 9b b1 8a 3e e2 11 40 3d
       -0.15058167 0.26907817 0.27088627 0.046892054
000060 5e dd 9b be b2 70 a0 be 6b 20 de bc 82 56 1d 3e
       -0.30442327 -0.3133598 -0.027115067 0.15365031
000070 30 92 7b bd b5 66 0f be ff b0 4e 3c 1b b2 6c 3e
       -0.061418712 -0.14004023 0.012615441 0.23114817
000080 ff 1d 63 be 11 99 23 be 72 e6 27 3e 9e 9c 2d 3d
       -0.22179411 -0.15976359 0.16396502 0.04238569
000090 92 fe 88 bd 33 e4 d5 bc 04 36 1b 3c 68 f8 ba 3e
       -0.066891804 -0.02610979 0.009473328 0.36517644
0000a0 79 62 9e bc 28 a8 58 be 10 e4 2e ba bf d1 e3 3e
       -0.019334065 -0.21157897 -0.0006671557 0.4449596
0000b0 6c 8f 0d 3e 7e 95 cc 3d e8 b4 cb be f0 5a 25 be
       0.13824242 0.09989451 -0.39786458 -0.16147971
0000c0 2d fb 8f 3e b8 bf aa 3c 69 f3 ae be 85 93 b3 bc
       0.2812132 0.020843372 -0.34170082 -0.021920929
0000d0 c3 cd 95 3d eb b6 3e be af da 9f 3e 1f c6 3d 3e
       0.073146366 -0.18624465 0.3122153 0.18532608
0000e0 4b 9d 66 be 95 a5 39 3e 22 1c eb bd ff dc 2c bd
       -0.2252094 0.18129571 -0.11479975 -0.042202946
0000f0 08 11 11 3e a7 26 b7 3b 32 77 02 3d 10 44 63 3d
       0.14166653 0.0055893245 0.031851955 0.05548483
000100 d3 ad 13 be c6 d7 b8 be 98 6c 79 3d 68 10 08 be
       -0.14421777 -0.36102122 0.06089458 -0.13287508
000110 ea e9 a8 be 51 0f 58 be 2e 32 0f be 3f 86 6f bd
       -0.32990962 -0.21099593 -0.13983986 -0.058477636
000120 42 1a 95 3e b6 fb f7 3c 27 f1 8e be 7c 04 8f 3e
       0.29121596 0.030271392 -0.2791836 0.2793311
000130 0f 19 c6 bd d2 8a 57 be 24 53 40 3e b4 71 12 be
       -0.09672748 -0.2104905 0.18781716 -0.14301187
000140 7c de 6c 3e cf 28 05 3d 89 46 8c bd 43 2a b5 bd
       0.23131746 0.03250962 -0.06849391 -0.088459514
000150 8a b2 6c be e5 fb 59 bd ec 65 26 3e c8 a2 db bd
       -0.23114982 -0.05321874 0.16249818 -0.107244074
000160 ed d3 72 3e 38 28 a0 3c 31 66 8d 3e e5 f3 3f be
       0.23713656 0.019550428 0.27617028 -0.18745382
000170 9f 38 58 bd f2 d9 b7 be 28 ec a8 bd f8 28 92 3e
       -0.052788373 -0.35908467 -0.08248168 0.28546882
000180 19 6e 79 be 3f 0b a3 3e db 97 80 3e 56 ae f5 bd
       -0.24358405 0.31844518 0.25115857 -0.119961426
000190 ac 53 2c bd 69 9c b1 3d ec 0d 89 be e9 2f bf bd
       -0.042071983 0.08672411 -0.26768434 -0.0933531
0001a0 4c c4 6f 3e 3b 28 b3 be 94 67 42 3e 26 ed 60 3e
       0.23414725 -0.3499163 0.18984824 0.21965465
0001b0 71 35 ae be 03 9e ce bd 5f 35 db 3e cd 8c 60 3e
       -0.34025148 -0.10088732 0.42814156 0.21928711
0001c0 f7 12 94 3d da 39 1a be f8 10 1c 3e 53 11 70 bc
       0.0723018 -0.15061131 0.15240848 -0.014652568
0001d0 e6 4f 2e be 4b b5 d7 be 03 53 80 3d f8 2c 83 3e
       -0.17022666 -0.42130503 0.06265833 0.25620246
0001e0 97 f8 33 3e 0f 45 9e bd 8d 2a 49 be b8 f3 52 3e
       0.17575298 -0.07728016 -0.19645138 0.20600784
0001f0 63 d8 15 bd e9 4b 19 be e7 65 8f be 6e 71 30 be
       -0.036583316 -0.14970364 -0.28007433 -0.1723077
000200 7f f8 fe 3e e4 7e 83 3e 4a c3 e2 3d 49 37 c1 be
       0.49798962 0.25682747 0.11072405 -0.37737492
000210 69 09 5f 3e 99 39 1b 3d 84 31 48 be 9a 50 04 bf
       0.21780933 0.037896726 -0.19550139 -0.5168549
000220 1a c5 da be 23 60 21 be 6b 67 15 3d d2 b7 77 bc
       -0.42728502 -0.1575933 0.03647558 -0.01511951
000230 4e 82 85 be 3a d1 96 3e 84 fe d4 3e af 50 cf 3e
       -0.26075977 0.29456502 0.4160043 0.40491244
000240 d3 f7 77 be b3 91 ec 3d 0c c9 00 3e 0a 8d 19 3e
       -0.24215631 0.115512274 0.12576693 0.14995208
000250 ec b2 ab bc b1 75 8f bb dc ce a2 3e a5 6a 14 3e
       -0.02095934 -0.0043780436 0.31798446 0.14493807
000260 2c e9 b2 bc bf 06 26 be 59 e2 9f 3d 9e 88 4f 3e
       -0.0218397 -0.16213511 0.07806844 0.20266959
000270 4d e1 fa bd 92 a5 aa be 2d da 32 be 77 46 53 3d
       -0.12250004 -0.33329445 -0.1746604 0.051580872
000280 ff d9 04 3d c4 17 f1 3c 3e 53 45 be 4b 8f b0 3d
       0.03243446 0.029430278 -0.19270036 0.08621081
000290 f5 5a 47 be 92 ff 09 3d 4d eb fd 3e 07 24 0f 3e
       -0.19468291 0.033690996 0.49593583 0.13978587
0002a0 bd e6 4e 3d 51 99 eb 3e 34 15 9a 3e 79 92 32 be
       0.050513018 0.4601541 0.30094302 -0.17438687
0002b0 fc 35 e4 bd 06 6d b0 3d 39 ae 93 be c3 5d a1 be
       -0.11143109 0.086145446 -0.2884386 -0.31516847
0002c0 89 a9 e2 bd 69 28 64 3d 01 95 54 be 76 22 26 be
       -0.110674925 0.0557026 -0.20759965 -0.16224083
0002d0 1f c3 ab 3e 05 15 56 3d d8 74 42 3e 58 4c 91 3e
       0.33547303 0.05226614 0.18989885 0.28378558
0002e0 74 99 71 be 10 7a 56 bc 06 7a 62 bd de cb d3 be
       -0.23593694 -0.013090625 -0.055292152 -0.41366476
0002f0 3a ea 5b be 57 ea d5 bd 63 cf c6 bd f4 dc 78 bd
       -0.21476069 -0.104450874 -0.097075246 -0.060757592
000300 63 80 6c be 28 ef cf bd 8a 21 23 3d e3 c7 aa be
       -0.2309585 -0.10153037 0.039826907 -0.33355626
000310 9a df a7 be 54 6b 24 be a2 93 9f bc eb 08 78 3e
       -0.32787782 -0.16056567 -0.019479576 0.24222152
000320 c4 ba d1 bd 8c 7a 21 be ec 15 c9 bd 76 23 96 3e
       -0.10240701 -0.15769404 -0.098186344 0.2932393
000330 ad 11 cc 3d 9f 7f 03 3e 12 f3 0f be 67 4d 3a 3e
       0.09964309 0.12841652 -0.14057568 0.18193589
000340 ef ff 92 3e 2c b4 e2 bd a7 d0 10 3c bd 4c 6d 3d
       0.28710887 -0.11069521 0.008838809 0.05793451
000350 f8 f2 a6 3e 60 28 93 3e 97 95 98 3e ca b9 c1 bd
       0.32607245 0.2874174 0.29801628 -0.094592646
000360 a3 3f af bd 20 75 8e bd 2d 12 3a 3e 96 9a 89 bd
       -0.085570596 -0.069559336 0.18170996 -0.06718938
000370 1c d1 81 3e 0a 91 bb bd db 8b 01 3e 79 b5 89 3d
       0.2535485 -0.091585234 0.12651007 0.06724066
000380 f7 01 76 bd 7e a5 41 3d ff 96 8b 3d 3b f3 3a bd
       -0.060060468 0.047276966 0.068159096 -0.04564212
000390 fd a6 60 bd 95 12 6d 3e c0 f5 6d be ab dd fc bc
       -0.054846752 0.2315162 -0.23238277 -0.030867418
0003a0 de 92 9f bd 99 62 1f bd fb 64 96 be ed ea 11 3e
       -0.077916846 -0.03891239 -0.29373917 0.14249773
0003b0 6d a2 1e bd 24 bf 2a bd c9 e5 5c 3e ad bf ac 3d
       -0.03872912 -0.041686192 0.21572031 0.08434997
0003c0 68 f1 74 3e 51 89 c5 3d b7 d8 95 bd e2 32 ad be
       0.23920214 0.09645332 -0.07316726 -0.33827883
0003d0 fb bb 94 be 15 83 83 be 28 47 a8 3e e0 e6 4a 3e
       -0.29049668 -0.25685945 0.32866788 0.19814634
0003e0 17 47 86 bc 7b ce e0 3d 9e 76 16 3e 37 ef 51 3e
       -0.01639132 0.10976883 0.14693686 0.2050141
0003f0 48 2f 4d 3e 4e d8 9b be 37 82 3a be 11 9d 11 3e
       0.20037568 -0.30438465 -0.18213736 0.14220072

conv1.bias f4 [12]
000000 17 9c 33 be 47 48 82 bd c9 2d 29 bd 95 75 28 bd
       -0.17540012 -0.06361442 -0.04130343 -0.04112776
000010 f3 c0 a7 bd 75 eb c5 bd fb cb 6b be cf 2b 1e 3e
       -0.08191099 -0.096640505 -0.23027031 0.15446399
000020 f2 8d 97 3e b4 90 ba bd da 0f 72 bd 58 05 f6 be
       0.29600483 -0.09109631 -0.05909715 -0.48050952

conv2.weight f4 [16, 12, 3, 3]
000000 b3 eb 1d be 3b dc 50 be 75 48 0b be b0 43 54 be
       -0.15421943 -0.20396511 -0.13601859 -0.20728946
000010 3d 34 83 be 33 e3 2b be 45 6a 45 be 81 19 c7 be
       -0.25625792 -0.16785888 -0.1927882 -0.38886645
000020 2f 13 45 be 2e b6 32 be ae 27 1d be bf e7 5a 3e
       -0.19245599 -0.17452309 -0.15347168 0.21377467
000030 39 bd 03 3e 4e fb 6f be 51 f8 01 be e6 ef 89 bd
       0.12865151 -0.23435709 -0.12692381 -0.0673521
000040 0b 2f d8 bd be 99 59 3d 89 87 fb 3d 51 e0 1c 3d
       -0.10555848 0.053125136 0.12281711 0.038299862
000050 a6 41 b8 3d 17 88 6c 3e 32 a8 be 3d 76 3e 3e be
       0.089968964 0.23098789 0.093094245 -0.18578514
000060 7e 0f 8a bd e5 67 ad 3d 67 2b 5d 3d 56 e9 6e bd
       -0.06741236 0.08467082 0.05399647 -0.058327995
000070 77 0c 98 bc 80 71 ab 3c 26 2b cd bd 5c 87 90 bb
       -0.018560631 0.020928144 -0.100179955 -0.0044106673
000080 68 7d 09 3e 30 50 04 3b d5 27 30 be b7 8a cb bd
       0.13426745 0.0020189397 -0.17202695 -0.09938567
000090 b6 60 c6 3d b4 74 2a bd 99 6d 8b bd 91 78 80 3e
       0.09686415 -0.041615203 -0.068080135 0.25091985
0000a0 dc f1 77 3e 36 78 11 bd 1e fa 66 3e fb 80 8e 3e
       0.24213356 -0.035515033 0.2255635 0.2783278
0000b0 93 11 33 3e 5b b2 56 3e b6 cb 34 be 8c fc f9 bd
       0.17487173 0.20966475 -0.17655835 -0.122063726
0000c0 a1 48 7f 3d 55 5e 7e bd 82 dc 79 be 23 c3 6f 3d
       0.062325124 -0.06210168 -0.24400523 0.058535706
0000d0 28 3c af bc 79 1c ba 3d e5 47 0b 3e c3 49 73 3e
       -0.02139099 0.09087462 0.13601644 0.23758607
0000e0 de c2 45 be ba 20 a4 bd d7 d0 37 3d 3a 03 ea 3d
       -0.19312617 -0.080140546 0.0448769 0.11426397
0000f0 14 f1 48 bd 7d 87 66 3d fe 40 25 3e b2 64 20 3e
       -0.049058035 0.056281555 0.16138074 0.15663412
000100 43 98 3d 3e 82 13 b5 bd 01 a4 84 3e 92 07 e7 bc
       0.18515114 -0.088416114 0.25906375 -0.028201852
000110 4d a1 f1 bd ce c5 c8 3e 60 c2 dc 3e bd 84 dd be
       -0.11798344 0.39213413 0.43117046 -0.43265334
000120 16 7c 71 3c de 3f 15 bb a4 ec 6a 3d 90 ea 81 3d
       0.014739057 -0.0022773664 0.057354584 0.06343567
000130 d5 14 8e be 24 65 5c be dc 7b 1f bd ff 50 81 bd
       -0.2775027 -0.21522957 -0.03893648 -0.06314277
000140 43 96 22 be 97 7b 8e bd 46 78 00 be ca 87 15 3e
       -0.15877633 -0.06957167 -0.1254588 0.1460258
000150 23 fe 38 3e 2e 8d 96 3d 25 06 96 bd 0e 64 a2 be
       0.18065695 0.07351147 -0.07325391 -0.3171696
000160 31 c4 1b 3d ea 2a fe bd 4e cd e5 3e 66 20 66 3e
       0.0380289 -0.12410529 0.44883198 0.22473297
000170 21 35 99 3d cf 8d b8 3d 72 b8 ea 3e d3 7d 95 3e
       0.07480837 0.09011423 0.45843846 0.2919756
000180 35 f6 a9 3e b0 45 06 3f 36 e8 16 3f 6d 49 6b 3e
       0.33195654 0.52450085 0.58948076 0.22977228
000190 cf 47 2b 3d 97 94 5a 3d 5e d8 4e 3d 25 57 8a be
       0.04181653 0.053364363 0.050499313 -0.2701961
0001a0 81 dc 5c bd a3 c8 74 be 3c a7 13 3d bb b9 54 bc
       -0.053921226 -0.23904662 0.03604816 -0.012983735
0001b0 12 03 68 bc ec 32 07 3e b9 e0 c3 3c 75 0d 24 bc
       -0.014160888 0.13203019 0.023910867 -0.010012974
0001c0 23 47 97 be 44 4a bc 3d fb 65 05 be 6d d7 d6 be
       -0.2954646 0.091938525 -0.13027184 -0.41961232
0001d0 bc 4f b6 bc 24 29 bf 3d 35 31 15 3d 70 c9 42 be
       -0.022254817 0.09334019 0.03642388 -0.19022155
0001e0 0b 9a d0 bd ba 35 08 3e 2a b2 fa bd d6 d9 91 be
       -0.10185631 0.13301745 -0.12241013 -0.28486508
0001f0 75 20 59 3e 95 a4 04 3e 4f ab b7 3e a2 3a 2a 3e
       0.21203788 0.12953408 0.35872886 0.16623929
000200 89 ff 1d bd 9b e5 1d 3e 92 15 63 3e 3b ea 76 3e
       -0.038573775 0.15419619 0.22176197 0.2411279
000210 a9 78 31 3b f8 a9 07 3e e3 6e 67 3e e8 1d a6 bd
       0.0027079976 0.13248432 0.22600894 -0.08111173
000220 ea ac 13 be ed f2 cd 3d 04 3d 9b 3d 6c ab ec bc
       -0.1442143 0.100561 0.07579997 -0.028890334
000230 dd 5c 68 bd b2 54 60 3e 03 f1 fb 3d d7 d5 b0 3d
       -0.056729186 0.21907309 0.12301829 0.08634537
000240 b0 d7 57 3d 54 53 ff 3d 97 ce 50 bd 69 83 d0 bc
       0.05269593 0.124670655 -0.05097827 -0.025453286
000250 37 3e fa 3d 8c 52 09 be 23 19 0b be 15 9b 39 bd
       0.12218898 -0.13410395 -0.13583808 -0.045313913
000260 82 cc 70 bc 37 9d 82 3c b0 07 5f bd 08 74 9a bd
       -0.014697196 0.015944107 -0.05445069 -0.075416625
000270 37 e9 4d 3e a5 cd a8 be 1e 08 57 bc 03 74 47 bd
       0.20108496 -0.32969394 -0.013124494 -0.04869462
000280 39 09 ed be a3 ef 84 be 14 d7 a3 bd 2c 92 90 3d
       -0.462961 -0.25964078 -0.08000007 0.0705913
000290 1f 2d a1 3e 37 2e 00 be 52 ab 78 3c 16 d4 df bc
       0.31479737 -0.1251763 0.015177565 -0.02732281
0002a0 14 cf c4 bd 38 00 8f 3d 63 93 b4 3d 8c e6 21 be
       -0.096098095 0.069824636 0.08817174 -0.15810603
0002b0 6f 10 9c be 27 92 a7 be 83 d4 3e 3e 06 4c 53 be
       -0.30481288 -0.32728693 0.18635754 -0.2063447
0002c0 46 11 f5 bd dc a0 94 3e 16 4c 17 be 81 e3 2c be
       -0.11966185 0.29028976 -0.14775118 -0.16883661
0002d0 a4 a9 5a 3e c3 e7 dc bd 87 bd 04 bc 2c ce 0a 3e
       0.21353775 -0.107863925 -0.008101827 0.13555211
0002e0 be 91 9d 3d 91 db f5 3c 60 c1 04 3e cb c6 bf 3d
       0.07693814 0.030011924 0.12964392 0.093640886
0002f0 d3 95 f7 3d 9e 67 1a 3c 14 32 b8 bd ae 45 91 bd
       0.120891236 0.009424118 -0.08993927 -0.070933685
000300 c5 60 bb 3d 96 6b 04 3e 60 9a df bd 9f ac de 3d
       0.09149317 0.12931666 -0.109181166 0.108727686
000310 e5 e1 e0 bc 75 32 1c 3e a5 01 4f 3d 6c 24 4d bd
       -0.027451465 0.15253623 0.050538678 -0.050083563
000320 ba 00 29 be 97 84 a0 be e1 8a ae bc b8 9d ad bd
       -0.16504183 -0.31351158 -0.021306457 -0.08477348
000330 83 c5 72 3d e3 8e ea 3d 77 26 e0 ba 3f d7 07 be
       0.059270393 0.11453035 -0.0017101307 -0.13265704
000340 04 38 57 3e 30 f9 bd 3e 60 53 59 3e 85 08 cd bd
       0.21017462 0.37104177 0.21223211 -0.100113906
000350 f6 72 32 be ad 54 5f 3d 72 d3 80 bc fc 05 4a be
       -0.17426667 0.054524112 -0.015725825 -0.19728845
000360 c2 77 00 bd de 4f 0d be 34 29 08 3e cb 39 95 be
       -0.03136421 -0.13799998 0.13296968 -0.29145655
000370 a5 d2 fb be 5b a1 6e bd b1 58 8b be 35 e9 41 be
       -0.49184147 -0.05825935 -0.27216104 -0.18936618
000380 ca 40 4f bb 2c 2a ed 3d 46 b6 c8 3d b9 d5 be bd
       -0.003162431 0.11580309 0.09800391 -0.09318108
000390 dc 36 91 bd 24 2a 10 3d ad b3 db bc 1b 51 90 be
       -0.07090542 0.03519644 -0.026819075 -0.2818688
0003a0 06 1e e8 3b 0e bc 64 3b a8 88 65 bc ee 24 07 3e
       0.007083657 0.0034902128 -0.014009632 0.13197681
0003b0 a8 33 27 3e f6 54 57 be 5e 8d 31 3d db 91 e8 3d
       0.16328299 -0.21028504 0.04334771 0.11355945
0003c0 38 cd 18 bf c6 6f 9d bd 93 a8 1e 3e 83 47 c4 3e
       -0.5968814 -0.07687335 0.15493993 0.3833581
0003d0 88 f8 e2 3d d4 60 37 3d 80 f3 54 3e 74 e4 1e 3e
       0.1108256 0.044770077 0.20796013 0.15516835
0003e0 4f 9b ec be bf f7 9e 3e 2c 2a cc 3b 7f ce 5c be
       -0.4621224 0.3104839 0.006230613 -0.21563147
0003f0 8c d4 bc be de 4c 27 3e f6 ec 85 3d 67 f0 9c bd
       -0.3688091 0.16337916 0.06539337 -0.076630406

conv2.bias f4 [16]
000000 45 f3 5f 3d 84 b6 fc bb 92 db 01 3f 4e 6c 3b 3e
       0.05467536 -0.0077121872 0.5072566 0.18303034
000010 e7 12 c3 bd 02 92 e9 3d 60 76 7d bd 84 ff e1 bd
       -0.0952509 0.11404802 -0.06188047 -0.11035064
000020 30 4e 06 3f 2f ce 9a be 22 05 18 3f 41 27 c8 bd
       0.52463055 -0.3023543 0.5938283 -0.09773112
000030 3f 6a 82 3d a8 fe 21 be 49 ef 8d be 5b f6 6b be
       0.06367921 -0.158198 -0.27721623 -0.23043196

conv3.weight f4 [24, 16, 3, 3]
000000 d4 86 06 3e f9 ec 4f bb 55 53 67 3e 30 86 23 3e
       0.1313737 -0.003172694 0.22590382 0.15969157
000010 50 23 41 be d4 3d 09 3e 69 93 9c 3c 49 a7 c7 bd
       -0.18861127 0.13402492 0.01911326 -0.09748704
000020 23 5e 87 3e e5 69 b0 3e c6 b5 50 3e 24 8b 7c 3e
       0.26439008 0.3445579 0.20381841 0.24662453
000030 a0 03 77 3e c2 25 d7 3d 1a 29 53 3e ef be c7 3d
       0.24122477 0.105052486 0.20621148 0.097532146
000040 ca ad 12 be 38 31 8f 3e c2 4c d3 3e 3c 97 de 3e
       -0.14324108 0.27967238 0.412695 0.43474758
000050 4f 2f 03 3f 9e 55 a2 3d 0e ff ed bd e2 33 bc 3e
       0.5124406 0.079264864 -0.116209134 0.36758333
000060 b1 c1 7a bd 5e 3b 10 3e e8 39 c2 3b 2c 99 a9 be
       -0.061219875 0.14085147 0.005927313 -0.33124673
000070 3e 23 6c be 37 3e 35 be 20 df 98 be f8 e0 c9 bd
       -0.23060319 -0.17699514 -0.2985773 -0.098573625
000080 20 4d 97 bd 31 77 65 bd 54 3e 8a bd f1 0c b7 3c
       -0.07387757 -0.056021873 -0.067501694 0.022345038
000090 bd 05 fb bb 22 60 4e 3a 79 dd 8a bc e8 e8 52 3e
       -0.007660596 0.0007872601 -0.01695131 0.20596659
0000a0 f2 e5 52 3e ac a9 94 3c d5 c0 1e 3e 1c 02 5f 3d
       0.2059553 0.018147312 0.15503247 0.05444537
0000b0 da 5d bc bd d8 c7 d6 3d 0e be 51 3e 59 99 bf bd
       -0.09197588 0.10487336 0.20482656 -0.093554206
0000c0 83 3b 5b 3e 53 59 c6 bd 84 fe de bd 02 04 84 3c
       0.2140942 -0.09685006 -0.10888389 0.016115192
0000d0 e9 f3 ba bc 4c 24 89 be a0 ce 13 be a7 e7 16 bd
       -0.022821384 -0.26785505 -0.1443429 -0.036842015
0000e0 21 6d c2 3d a7 7b d9 bd a9 6e 07 3d dc bd 1f be
       0.09493471 -0.10619288 0.033064518 -0.1559977
0000f0 32 4b bd 3d ad b0 ab 3c 2b 77 6c be f1 22 0f 3e
       0.09242858 0.020958269 -0.23092334 0.13978173
000100 14 19 17 3e 62 5a 67 3e 5a 65 d6 3e 56 14 79 3d
       0.1475566 0.22593072 0.418742 0.06081041
000110 fe 02 1d be 1b 34 29 3e 2d 6e 7a bd ab fd ce 3d
       -0.15333173 0.16523783 -0.061140228 0.10106977
000120 92 9a e1 bc cf 75 c5 bb ec 29 8b bd c7 d5 18 3e
       -0.027539525 -0.006026007 -0.06795105 0.149253
000130 51 a6 7a 3d b6 b6 27 3d f7 2e 54 be 34 d2 af 3b
       0.061193768 0.04094573 -0.2072104 0.0053656343
000140 23 ce c3 be 22 f7 bb bb 16 d7 83 bd ea 42 9c 3e
       -0.38243207 -0.0057362476 -0.06437509 0.305198
000150 c6 1a e7 3c 30 33 49 3a f1 3f 86 3e b8 b0 72 be
       0.028211009 0.0007675169 0.26220658 -0.23700225
000160 36 e9 1d 3a a2 ac 02 be ae 20 8c 3e 90 c0 6d bd
       0.0006023826 -0.12761167 0.27368683 -0.05804497
000170 ea 8d 44 bd e5 02 cd bd 8b 9f f5 bc 44 9c 01 be
       -0.047986902 -0.10010318 -0.029983303 -0.12657267
000180 a8 4e 00 be 9d 6d 91 bd 97 c8 d8 3a 2e 6e 3a be
       -0.12530005 -0.07100985 0.0016539273 -0.18206093
000190 16 97 c2 bd 74 18 11 3e 66 34 db bd ab d9 15 be
       -0.095014736 0.14169484 -0.107033536 -0.14633815
0001a0 48 17 f1 3b 24 92 09 be bf 4a 90 be d5 2b 06 3c
       0.0073575117 -0.13434654 -0.28182027 0.008189161
0001b0 3b 53 13 be 7d 7b bf bd cb bc e2 3d fb e1 4c 3e
       -0.14387219 -0.093497254 0.11071166 0.2000808
0001c0 0a 6a d1 bb ca c3 d3 3c dc 8e c1 bd db 37 0c 3e
       -0.0063908147 0.025850195 -0.094510764 0.13693182
0001d0 d2 3b ae 3d 7c 9e 10 3e a3 da 5a 3e c6 59 d1 3d
       0.085075036 0.14122957 0.21372466 0.10222201
0001e0 18 88 af 3d 81 56 e2 3c 7a 44 b6 3b 7f b6 46 be
       0.0857088 0.027629139 0.0055623623 -0.19405554
0001f0 95 35 64 bc 5a f9 01 be e4 7b 5e bd e9 f5 46 3d
       -0.013928791 -0.12692776 -0.05431737 0.048574362
000200 3c 05 56 bc 8b a8 1f 3d 7c 43 aa bd 58 33 5a bd
       -0.013062771 0.038979094 -0.08313653 -0.05327162
000210 0c 96 35 3d 10 95 9f bd 49 ca ef 3d de 70 3e bc
       0.04433255 -0.07792103 0.11708505 -0.011623589
000220 d1 4e d6 be f2 a5 b1 bd 1a 45 7d 3e 06 d4 5e bd
       -0.41857007 -0.0867423 0.24733391 -0.05440142
000230 1f 18 16 be 03 97 3a 3c 70 e2 8b be 0f d0 b2 bd
       -0.14657639 0.011388543 -0.27321196 -0.0873109
000240 b9 52 81 3d 9d 2a f9 3d df 44 6d be 60 18 9b 3c
       0.06314606 0.12166331 -0.23170803 0.018932521
000250 a3 f9 14 be f3 8a b3 bd 10 f5 0b be 29 3f 99 bd
       -0.14548354 -0.08766737 -0.13667703 -0.0748275
000260 15 cb 57 bd 60 4c 68 be 72 69 3b be 45 94 0e 3e
       -0.05268391 -0.22685385 -0.18301943 0.13923748
000270 21 06 67 bd 8b 4e 4f 3e c5 c5 64 3e aa 7d 7c bd
       -0.05640233 0.20244806 0.22341068 -0.06164328
000280 4c 12 b5 3d c7 cf c1 3d 9a 03 fe bb 5c 5e 93 3d
       0.088413805 0.094634585 -0.007751894 0.07195732
000290 b2 ae 75 3e bc 00 84 3e c5 96 30 3d eb 33 3c be
       0.23992422 0.2578181 0.043112535 -0.1837918
0002a0 04 72 91 be 39 c9 cf bd de 34 f6 bd 91 82 33 be
       -0.284073 -0.10145802 -0.12021802 -0.17530276
0002b0 18 bc a0 3d 7a 75 63 bd d2 96 e2 bd 1f 57 8f bd
       0.07848376 -0.055531956 -0.11063923 -0.06999039
0002c0 19 9b 53 be 8a 34 0c bc a7 91 41 be dc 7a 0a be
       -0.20664634 -0.008557448 -0.18903218 -0.1352343
0002d0 af 38 8d 3b b6 2c c0 3b 73 bf 59 3c cb 7e 0c be
       0.0043097357 0.005864705 0.013290274 -0.13720243
0002e0 87 9d 64 be 9c d0 4e 3c 7f c4 b1 bd 43 04 58 3d
       -0.22325717 0.012622979 -0.08680057 0.05273844
0002f0 a6 a9 a9 bd c3 a1 cb bd a8 24 6a 3e 5f ea 1a 3f
       -0.08284311 -0.09942963 0.22865546 0.6051387
000300 5f 5d dc 3d ac a2 84 3c e7 fc 73 3e 8b ea 66 be
       0.107599966 0.01619085 0.23826943 -0.22550409
000310 3e 53 56 be a2 bd 25 be 27 99 1e 3e 76 7d 7c 3e
       -0.20930192 -0.1618562 0.1548811 0.24657235
000320 bc 20 86 3e 32 09 df 3e bb 99 46 3e 57 c9 c1 3d
       0.2619685 0.43561703 0.19394581 0.09462231
000330 b8 10 01 3f 16 52 a5 bd d2 ef f9 bc 2a ea 84 3d
       0.50416136 -0.08072297 -0.030509863 0.06489976
000340 06 ad be be 0b dd c4 3b c9 71 41 be 9f b7 12 be
       -0.3724138 0.0060077957 -0.18891062 -0.14327858
000350 0f af 06 3e 49 9d 7f bc d0 1b 27 be 1d 3c 51 3e
       0.13152717 -0.015601465 -0.16319203 0.20433088
000360 4d d1 c5 be 84 3a 31 be 3c bc 38 be 04 bc bd be
       -0.38636246 -0.17307478 -0.18040556 -0.37057507
000370 ff cf c5 bd ed 39 29 3e 41 91 34 3d 5f c6 28 3e
       -0.09658813 0.16526003 0.044083837 0.16481923
000380 40 b0 cf bd 61 36 91 3d 9b 62 90 3d 51 a5 6f 3e
       -0.10141039 0.0709045 0.070500575 0.23402907
000390 3c 7a 34 3e 83 2d 7f bd 29 b9 7a 3e 3e 3d 5d 3e
       0.17624754 -0.062299263 0.24484695 0.21605393
0003a0 91 af 2d 3e 50 a3 a6 3e 53 cc e7 3d a5 af 77 3d
       0.16961505 0.32546473 0.113182686 0.060470242
0003b0 f7 cb 9c bd 0a 57 15 be 69 a6 90 3d e6 df 08 be
       -0.07656091 -0.14583984 0.0706299 -0.1336666
0003c0 68 9f 95 bd 63 e1 48 be ae 4b d9 bd 2d c6 bf 3d
       -0.07305795 -0.19617228 -0.10610138 0.09363971
0003d0 70 ac 32 3d 26 7c 74 3e b4 e7 5f bc 7d b3 1b 3e
       0.04362148 0.23875484 -0.013666082 0.15205188
0003e0 b8 6a e9 bb 93 ee 88 bd 95 a0 20 3d 02 06 41 3e
       -0.0071233176 -0.066861294 0.039215643 0.18849948
0003f0 1f 77 ee 3c a0 ea 13 bd ed 7f 7b 3d b1 9d 4e 3d
       0.029109536 -0.036112428 0.061401296 0.050443355

conv3.bias f4 [24]
000000 da 14 25 bf 9c f6 0f 3c 8c cc 0a 3f 35 17 60 bd
       -0.6448494 0.008786824 0.54218364 -0.054709632
000010 59 04 67 be f6 17 b8 bd 97 49 80 be 78 88 df be
       -0.22560252 -0.08988945 -0.25056145 -0.43658805
000020 a3 37 02 be 22 07 74 3c bc 67 45 3f 4e 65 2a 3e
       -0.12716536 0.014894279 0.7711141 0.16640207
000030 26 43 16 3f 28 42 90 3e 2e b2 33 3f 94 c7 4f bd
       0.5869621 0.28175473 0.70193756 -0.050727442
000040 f4 85 92 be 51 11 b2 be 3b 9b 2a bd 8c 5c ae be
       -0.28617823 -0.34778836 -0.041651946 -0.34054983
000050 a1 1b 3b 3f ac a0 1f 3e 1c 02 ae 3e f3 cc 29 bf
       0.73089033 0.15588635 0.33985984 -0.6632835

fc1.weight f4 [120, 96]
000000 f0 fc 0f bf c0 02 47 3e 57 32 8d be 90 18 43 bd
       -0.56245327 0.19434643 -0.2757747 -0.047630847
000010 85 72 49 3a d1 bd 88 3e e7 ea 5e be 0b 11 ea 3d
       0.0007684606 0.26707318 -0.21769296 0.11429032
000020 a6 70 cc 3e e0 73 92 bc e2 6b 8c 3c 52 00 34 be
       0.39929694 -0.01787752 0.017141286 -0.17578247
000030 61 45 8d bd 08 d4 b3 3c 18 7d c4 bd 1c 62 57 bd
       -0.068979986 0.02195169 -0.09594172 -0.0525838
000040 78 86 73 bd bf ee 17 3d 63 a0 2a be 09 23 43 3d
       -0.05945441 0.03709292 -0.16662745 0.047640834
000050 9b 6a 89 bd e7 57 e5 3c 2c 12 c1 3c 8e 29 b6 3d
       -0.067097865 0.027996017 0.023568235 0.08894645
000060 28 7c 30 bf d7 9b 18 3e 55 c8 f3 bd b0 43 ce 3e
       -0.6893945 0.14903198 -0.11903445 0.40286016
000070 fb 26 a0 be dc 33 c8 bd c6 29 1a bf 82 ec 1c bb
       -0.3127974 -0.097755164 -0.6021999 -0.002394468
000080 5c 06 6b be 57 42 49 3e 6b 1f 22 3e 00 76 b1 3e
       -0.22951645 0.19654213 0.15832298 0.3466034
000090 41 fa f3 be c9 45 9d be 38 65 95 3d bc b4 38 be
       -0.47651866 -0.30717304 0.072946966 -0.18037695
0000a0 ba 4e 62 3e c7 f0 d3 3e 9c de cd bd 3b b6 88 3e
       0.22100344 0.41394636 -0.10052225 0.2670153
0000b0 cd f7 e9 3e 2b 05 1f be 73 d1 7b be c5 bb bd be
       0.4569687 -0.15529315 -0.24591617 -0.3705732
0000c0 7e 47 15 bf af 35 33 3f 2f 85 00 bf 32 82 11 bd
       -0.58312213 0.7000379 -0.5020322 -0.035524555
0000d0 d1 b8 20 3c b0 55 88 3d 93 77 4d 3e 7a 41 09 be
       0.009809689 0.066569686 0.20065145 -0.13403884
0000e0 fd 02 97 bd 73 60 0d 3d e2 6d 19 bf b5 cf 31 bf
       -0.07373617 0.03451581 -0.5993329 -0.6945756
0000f0 6f 8e db bd 24 0c 29 3e 1e 14 06 3d a4 fa 8f bd
       -0.107205264 0.16508538 0.03273403 -0.07030228
000100 8b 9e e6 bd 5e f8 ba 3d 8f 1d 72 be cf 50 8d bd
       -0.112607084 0.091294035 -0.23644088 -0.06900179
000110 27 7d ca bd 08 b6 0c be 07 ac 9e 3e 02 5b c1 be
       -0.09887152 -0.13741314 0.3099062 -0.37764746
000120 fb 4a ff bc 0f e1 94 3e b3 31 6f be d1 2e b0 be
       -0.031163683 0.29077956 -0.23358802 -0.34410718
000130 fb de 11 be eb 87 7c be 85 72 90 3e 19 a4 a2 3d
       -0.14245217 -0.24661224 0.2821237 0.079414554
000140 61 2a 01 bf 66 17 51 bd c8 a9 e7 bd d4 d7 51 be
       -0.5045529 -0.051047705 -0.1131168 -0.20492488
000150 f3 57 5c bd 33 b4 b5 3e a8 0e 40 bf 01 e1 e6 bd
       -0.053794812 0.35489044 -0.75022364 -0.11273385
000160 40 f4 ab be b2 94 41 be 27 a5 9a be 8a 4e 82 3d
       -0.33584785 -0.18904379 -0.30204126 0.063626364
000170 09 3f 09 3e d0 56 ab 3e 6b c1 98 3e 0a 5b 3f 3e
       0.13402952 0.3346467 0.29835066 0.18687072
000180 d9 81 8e 3d 29 5b bd 3e bf 8c 2e be 23 cd 58 be
       0.0695836 0.36983612 -0.17045878 -0.21172003
000190 c0 54 60 3e e8 ab bb be c7 9f 61 bd ac ff dc bd
       0.2190733 -0.36654592 -0.055084016 -0.10790953
0001a0 18 69 94 be ec da 8f 3e 74 6b dd be 37 13 a2 bd
       -0.2898643 0.28096712 -0.43246043 -0.07913821
0001b0 35 52 6a bc 6f 76 5d 3d 4d 9e 45 bd e7 f1 5e bc
       -0.014301826 0.054068025 -0.04824667 -0.013607479
0001c0 02 0a 0c be 92 80 02 be c1 97 68 3e d3 dc 30 be
       -0.13675693 -0.12744358 0.2271414 -0.17271738
0001d0 05 62 ef 3c db f0 86 bd bc 3f d6 bd 6d 34 bb bc
       0.029221544 -0.06588908 -0.10461375 -0.022852147
0001e0 0c 0d fa 3d 7f 19 5f 3e 06 9d a8 bc f4 01 aa 3e
       0.1220952 0.2178707 -0.020582687 0.33204615
0001f0 03 e5 0d 3f 14 bf 2c 3e 5c b0 5a be f8 c7 27 3e
       0.5542757 0.16869766 -0.21356338 0.16384876
000200 04 c6 95 be 4e 4a 1a bf a7 7b 4c 3e 78 c9 c7 3b
       -0.29252636 -0.6026963 0.19969045 0.006097015
000210 50 23 9c be 44 49 0b bf f5 2b 51 3e 35 4b 07 3e
       -0.3049569 -0.5440867 0.20426925 0.13212283
000220 3e 21 e8 3d 48 df ba 3d 18 aa 52 bd 45 9a c8 be
       0.113344654 0.09124619 -0.051431745 -0.39180198
000230 de d7 b7 3d 7a c8 a0 3e 03 95 cf bd 43 b1 cf be
       0.0897672 0.3140295 -0.101358436 -0.40564927
000240 a0 4d af 3c 2a bc b5 3e c4 06 fb 3d e0 37 a6 3c
       0.02139932 0.3549512 0.1225715 0.020290315
000250 f4 7a 2a be 03 2a 95 bd a3 5e 0a 3e 84 22 2f 3e
       -0.16648465 -0.07283404 0.13512664 0.1710301
000260 e5 65 31 3e f9 36 0d be fd f2 fa 3b 6b da 02 3d
       0.17324026 -0.13790502 0.007658361 0.03194658
000270 d6 e8 20 3d c9 67 8e 3e 29 5f 27 3e 50 d6 40 bd
       0.03928455 0.27813557 0.16344894 -0.047079384
000280 fe 98 85 3c f4 9f 81 bd fd 4c 41 3e 08 48 f7 be
       0.016308304 -0.06329337 0.18877025 -0.48297143
000290 1f a4 b6 3e 34 f2 8f 3c 1c 42 a2 3d 29 03 f5 3c
       0.3567209 0.017571546 0.079227656 0.029908733
0002a0 21 95 d7 3d 46 79 05 3c 32 56 21 be d2 8d b3 be
       0.10526491 0.00814659 -0.15755537 -0.35069138
0002b0 34 f8 1a be 40 a7 17 3d da c1 22 be 39 f7 6b 3d
       -0.15133744 0.037024736 -0.15894261 0.057608817
0002c0 e6 e8 5b be d1 6e 92 be b2 7a 88 3e 9f bf f2 bd
       -0.21475562 -0.2860017 0.2665611 -0.11852955
0002d0 29 3f 7b 3e 11 f0 29 bb 7b 14 26 be 32 ce 3d be
       0.24535812 -0.0025930444 -0.1621875 -0.18535689
0002e0 66 fb 2d 3e cc fb 80 bd 1d a1 9c bd 57 96 99 bd
       0.16990432 -0.062980264 -0.076479174 -0.07499378
0002f0 82 e3 ac be b7 12 a3 3e 85 99 a5 be 30 ad b5 be
       -0.33767325 0.31850216 -0.3234369 -0.35483694
000300 21 2f 52 3e 9b f4 af 3e 58 c6 b2 be 8b 18 f9 bd
       0.20525791 0.34366307 -0.3491695 -0.12162884
000310 ff 2b 80 be 25 54 97 be b8 5a 1b 3d df 1f c9 3d
       -0.25033566 -0.29556385 0.037928313 0.09820532
000320 23 c0 29 3d 5a 9a 86 bd d9 02 8a bd c7 e1 01 3e
       0.041443 -0.06572409 -0.067388244 0.12683783
000330 13 d2 50 3b 96 7f 43 3d bc 1d a1 bb cb 14 5f bc
       0.0031863495 0.047729097 -0.0049168747 -0.013615797
000340 9b 3e 64 be 97 a3 24 be 47 c9 6f 3e bf 7d 40 be
       -0.22289507 -0.1607803 0.23416625 -0.18797968
000350 ba e0 5c bd 7d 3f 10 3b ee 6a 39 3c fd af 74 3d
       -0.053925253 0.0022010498 0.011316998 0.059738148
000360 25 b0 04 bf 4d e8 07 bd fa 8f 13 bd 0e 66 91 be
       -0.51831275 -0.033180524 -0.03602598 -0.28398174
000370 0e 01 8a 3d 08 74 95 be ee 59 8d 3d 81 c6 c5 3d
       0.067384824 -0.29190087 0.06901918 0.09657002
000380 eb 37 75 bd 08 ff fd be be 74 f8 3d 06 b3 c4 3d
       -0.05986778 -0.49608636 0.12131642 0.096044585
000390 23 e6 a5 bd ae b9 9f be 24 77 e3 3e 60 85 ec 3c
       -0.08100536 -0.3119635 0.44426835 0.028872192
0003a0 e8 70 a5 bb c3 f6 1a bf 9b c2 27 bd 86 64 d3 3e
       -0.00504886 -0.6053278 -0.040957075 0.4128763
0003b0 07 59 40 bd ab 9e e5 bc 4c 9a c2 3e 12 81 7c 3e
       -0.046959903 -0.02802976 0.38008344 0.24658611
0003c0 0d 2f 91 be b4 8d 9f 3e 05 e3 2c bf 41 70 c9 3e
       -0.2835621 0.31162798 -0.67533904 0.39343455
0003d0 47 c4 80 3e 1a 16 75 3e d5 c6 42 be 6c a7 a8 3c
       0.25149748 0.23934212 -0.19021161 0.020587645
0003e0 71 19 a9 be f8 8e 9e 3e c8 9c 9f 3d 6d 8f 20 bd
       -0.33027223 0.30968451 0.077935755 -0.03919928
0003f0 ba e6 62 be 03 a2 cc 3d ef f1 09 be 9b b8 f7 bd
       -0.22158328 0.09991839 -0.13471197 -0.120957576

fc1.bias f4 [120]
000000 51 47 b2 be 89 40 55 3e 09 14 52 3e 48 6d b0 3e
       -0.34820035 0.208254 0.20515455 0.34458375
000010 16 f3 5f 3e 2d 46 e1 3d 41 f2 9f 3c 48 39 06 bd
       0.21870074 0.10999713 0.019524695 -0.03276947
000020 46 72 1f bd df bc 28 3f 4f 31 de bc 77 56 0b 3f
       -0.03892734 0.65913194 -0.027123122 0.5442881
000030 19 00 f2 bd 9f 53 bb 3e 95 14 1b bf 77 c4 17 3e
       -0.11816425 0.36587235 -0.6057828 0.14821039
000040 0c 2a 12 3a 01 a0 ca 3d c1 33 da 3e 30 fe 72 be
       0.00055757235 0.098937996 0.4261761 -0.23729777
000050 27 72 c4 bd 35 3d c0 bd 6b a0 cc 3e 85 0a 95 be
       -0.09592085 -0.09386674 0.3996614 -0.29109588
000060 df 9a 6d 3e 66 06 01 bf c2 f0 bc 3e df 54 94 be
       0.2320361 -0.5040039 0.36902434 -0.28971002
000070 c9 8e 22 3e 16 9d c7 be 56 40 32 3f 9a 70 3b bd
       0.1587478 -0.38987035 0.6962942 -0.045761682
000080 7f 66 a4 be a6 a0 07 3f b2 fb db 3e ff f9 29 3b
       -0.32109448 0.52979505 0.42965466 0.0025936363
000090 fc a7 05 3f a7 08 f3 3d 24 08 12 be c2 7b fe 3d
       0.5220945 0.11866885 -0.14260918 0.12425949
0000a0 af 3f ee 3d 90 c8 03 be 07 e0 9e bb d5 fb e8 3e
       0.116332404 -0.12869477 -0.0048484835 0.45504633
0000b0 56 30 e6 3e 87 c6 ad 3e a2 1d 9c be f0 90 1e 3e
       0.44958752 0.33940527 -0.30491358 0.15484977
0000c0 d9 75 d1 bc db f6 b9 bd e7 4a a9 3e 5a 1b 91 bd
       -0.02556889 -0.09080287 0.33064958 -0.07085295
0000d0 13 19 b6 3e d6 de 08 3e 18 6f a2 bd 1b 67 e6 be
       0.35566005 0.13366255 -0.07931346 -0.45000538
0000e0 44 52 3e bf a3 ff 2e 3b fa b9 df 3e ce f8 b9 be
       -0.7434428 0.0026702664 0.43696576 -0.36322635
0000f0 de 65 09 bf 89 b4 f3 be dc 90 eb be 14 8f 63 3e
       -0.5367106 -0.47598675 -0.46008956 0.22222549
000100 ea 2c 70 be 46 a3 bb bd d9 fd 12 bf 79 ea 0f 3f
       -0.23454633 -0.09162001 -0.5741859 0.5621715
000110 b4 07 41 3e 26 3d e7 bd 68 95 36 3f e1 3b 03 3f
       0.18850595 -0.1129096 0.71321726 0.5126324
000120 16 1c 08 3f f4 01 e0 3e c0 5f e2 be 8d ea 10 be
       0.53167856 0.4375149 -0.44213676 -0.14151974
000130 01 de 98 35 ba cc 25 3f a0 56 00 3f 4e 90 c4 be
       1.1389494e-06 0.6476551 0.5013218 -0.38391346
000140 fe 5a a6 3b 5e 75 b6 be da 6b 85 be 11 56 ff 3d
       0.005076765 -0.3563642 -0.26058847 0.12467588
000150 f0 c0 e0 3e 6a 05 eb 3e 27 09 cc be 44 2e d1 be
       0.438972 0.45902568 -0.39850733 -0.4085561
000160 f7 47 d6 bd 62 61 8f be 5b 0d 22 be 35 19 98 bd
       -0.10462945 -0.28003985 -0.15825407 -0.07426683
000170 4a 2b 56 3b b0 23 51 3e ae 00 be 3e 84 76 33 3f
       0.003267961 0.2042377 0.37109894 0.70102715
000180 dd 3f 4a 3f 5e 97 92 3d 93 3f 83 bd b7 2e 7e bd
       0.790037 0.07157777 -0.0640861 -0.06205627
000190 54 16 10 3f 65 25 15 3c bf e2 ac 3e 72 f9 a0 be
       0.5628407 0.009103154 0.33766744 -0.31440312
0001a0 ad 18 44 3f 48 71 15 3c 50 89 9b 3d df 89 ee be
       0.7660015 0.009121247 0.0759455 -0.46589562
0001b0 ac 9b 5d bc 81 1d 38 3f 0e ab fd bd 20 ee 41 be
       -0.013525885 0.7192002 -0.12386142 -0.18938494
0001c0 09 a3 40 bd 59 13 65 bd 79 03 06 3e 6e 29 4b bf
       -0.047030482 -0.055926654 0.13087262 -0.7936009
0001d0 3c 06 6e 3e 23 b6 f6 3e 52 9c 5e 3f 64 9a e6 bd
       0.23244566 0.48185834 0.86957276 -0.112599164

fc2.weight f4 [84, 120]
000000 51 8a 06 be 17 4b 6b bc df 76 e4 3d ef a1 39 bd
       -0.13138701 -0.0143611645 0.11155485 -0.045320448
000010 52 08 53 bd 38 74 b3 3d a8 5f 11 3d 12 81 f2 3d
       -0.051521607 0.08762401 0.035491616 0.118410245
000020 5c 5b 12 bd b2 f3 a0 bd ae 70 97 bd 79 02 91 3e
       -0.03573166 -0.07858981 -0.07394539 0.283222
000030 0f 43 80 3d cc 5a 87 3e 48 1f 9c 3e 4b 63 2b be
       0.062627904 0.2643646 0.30492616 -0.16737096
000040 e8 e5 d3 bd fc dc ac 3d 2c 7c f9 be a9 d2 ba 3e
       -0.103465855 0.08440587 -0.48727548 0.36488846
000050 af c6 29 3c 1e 22 fe 3d a1 51 96 bd bc 75 90 3e
       0.010362311 0.12408851 -0.07339788 0.28214824
000060 dd 83 87 3d c2 47 59 be 34 68 a7 3e b4 4f 6c be
       0.06616948 -0.2121878 0.32696688 -0.2307728
000070 7e 94 3c 3e 92 94 f5 ba 0a 85 84 3e 01 ee 75 3d
       0.1841602 -0.0018736294 0.2588275 0.06004143
000080 31 57 c0 3e 47 91 63 3d 53 ec c6 3c ff 5e c8 3b
       0.37566522 0.05555847 0.02428261 0.00611484
000090 a0 19 76 be cb 4b 9a be fd 0b 6c be e7 2e 96 3e
       -0.24033213 -0.3013595 -0.23051448 0.2933266
0000a0 4b 42 90 be 3b 8e 35 3d 95 45 cf bc c3 a3 01 3c
       -0.28175578 0.044325095 -0.025301734 0.007912579
0000b0 5b 25 af be 90 cc c3 be e7 70 cf bd f0 54 67 be
       -0.34208187 -0.38242006 -0.10128956 -0.22590995
0000c0 00 fc ef 3c a9 6a d5 bd ce 47 59 3d 24 15 e8 3d
       0.029294968 -0.104207344 0.053046994 0.11332157
0000d0 9a c5 6e 3e c5 b3 cb 3e 6d 9d 7b be 5e 36 48 be
       0.23317567 0.3978559 -0.24571772 -0.1955199
0000e0 b1 24 af bd 50 89 03 be 9d c4 91 3d e5 d1 34 3d
       -0.0855192 -0.1284535 0.07117579 0.044145484
0000f0 3f 42 a0 bc 45 e7 67 3e 61 e3 6f bc e1 e6 a0 3e
       -0.019562839 0.22646816 -0.014641614 0.31426147
000100 7b a9 0a 3e 30 79 af bd 30 1c 9c bd 5d 56 3f be
       0.13541214 -0.085680366 -0.07622564 -0.18685289
000110 61 86 84 bd d6 62 63 3a 99 5e 8f 3e 97 d0 73 bd
       -0.06470943 0.00086740905 0.2800186 -0.0595251
000120 ab 0c 3c 3e 0e e2 b1 3e c9 b5 b9 3d e7 cf 2a be
       0.18364207 0.3474278 0.09067876 -0.16680871
000130 a9 a2 ff bc bb 85 ef bc 0e b9 6b 3e cf 11 30 3e
       -0.031205492 -0.029238572 0.23019812 0.17194293
000140 a2 30 c4 bc 74 a2 1c bf 62 8f a7 3e 1e 82 71 be
       -0.023948971 -0.61185384 0.3272658 -0.23584792
000150 73 d2 98 bc 8d 21 25 bf 49 91 38 be 5d 30 46 bd
       -0.018655038 -0.6450432 -0.18024172 -0.048385967
000160 e8 1e 5e bd a1 eb ba bd e1 10 13 bc e0 0f 95 bd
       -0.054228693 -0.09126974 -0.008976192 -0.072784185
000170 02 39 25 bd 22 9f 9a 3d 1b 0b 9c 3b 0e d5 b0 3d
       -0.04033757 0.075498834 0.004762066 0.08634387
000180 02 c7 1d 3e 80 14 8c be f6 a3 94 3e 29 dd 5f 3c
       0.15407947 -0.2735939 0.29031342 0.0136635685
000190 5b 13 41 be ba ea 97 3e 03 ac 9f 3e 2e 1e 0d 3e
       -0.1885504 0.2967127 0.31185922 0.13781044
0001a0 26 e2 d8 3e 61 64 35 be 16 bf 65 be 1a ec e2 3d
       0.42360038 -0.17714073 -0.22436175 0.11080189
0001b0 69 c7 72 3d d1 45 19 bd 19 7a 80 3d ea fc 67 be
       0.059272204 -0.037420098 0.06273288 -0.22655073
0001c0 4f 21 b0 3d 26 0f aa bd 7e 4f 6b 3b 77 c3 d1 bd
       0.08600103 -0.083036706 0.0035905535 -0.1024236
0001d0 27 e3 36 3e 5b 1e 11 bd d5 92 5f 3e 68 e9 98 3d
       0.17860089 -0.03542934 0.21833356 0.07466394
0001e0 65 6c e2 3e aa cf f8 bd 86 1d 4d 3e f0 80 ec bd
       0.44223323 -0.12148984 0.20030794 -0.115480304
0001f0 38 c3 34 bb 77 a4 e4 bd 2e b6 5b bd 7a 1b d1 ba
       -0.002758218 -0.11164182 -0.053640537 -0.0015953623
000200 14 95 eb 3d 63 39 f9 3d 59 5c 84 3e 3d 5e 80 3e
       0.11503044 0.12169149 0.25851706 0.25071898
000210 49 54 ec 3d c3 1b a0 be 41 d7 0d bd b0 db d9 bd
       0.115395136 -0.3127118 -0.03462911 -0.10637605
000220 6c fb 9e bd 46 54 25 3d c6 78 3d bd 65 16 51 3e
       -0.07762799 0.040363573 -0.046257757 0.20418699
000230 f0 f7 c1 3c ff 9e 82 3e 5d 12 42 3e 74 29 87 3e
       0.023677796 0.2551193 0.18952318 0.26398814
000240 e4 be 63 3d 0c f5 bd bd b8 b4 4e 3e 45 33 9e be
       0.05560197 -0.092752546 0.20186126 -0.3089849
000250 36 0b f5 b9 c6 6b 42 3e 36 fc 9d 3d d3 86 32 bd
       -0.00046738394 0.18986425 0.07714121 -0.04358561
000260 a1 1c 84 3e 86 6c 93 3e b9 31 15 be 93 f8 b9 3c
       0.25803092 0.28793734 -0.14569749 0.022701537
000270 4a ef 3d be 9e 82 be 3e e6 ed be be c0 d8 e5 3e
       -0.18548313 0.37209028 -0.37290877 0.4489193
000280 db a8 dc 3d de c9 f6 3b ec b1 b5 bc eb 83 2d 3e
       0.10774394 0.0075313887 -0.022179566 0.16944854
000290 b8 f0 55 be b1 71 51 be f9 7a e9 bd 6f b1 da be
       -0.20892608 -0.20453526 -0.11400408 -0.42713496
0002a0 b5 2e 45 be 8c 9a 23 be 30 27 0c bf 02 60 8e 3d
       -0.19256099 -0.15976924 -0.54747295 0.06951906
0002b0 fc fa 60 3e b2 86 20 bc 8b 6c b1 bd 45 5e 91 bd
       0.21970743 -0.009797739 -0.08663281 -0.070980586
0002c0 06 d9 9a 3d 26 98 5b be 1c 08 98 3e 00 75 82 be
       0.07560925 -0.21444759 0.29693687 -0.2547989
0002d0 78 38 9c 3e 6e 7f 3a be 52 2d 8e 3d 79 1f 60 be
       0.30511832 -0.18212673 0.06942238 -0.21887006
0002e0 7f 3c 82 3e b7 e1 f3 bc 3c 18 92 3e e9 d4 86 bd
       0.2543678 -0.029770715 0.28534114 -0.06583578
0002f0 24 2b 9a 3e 91 0f 04 3b ea c8 eb 3d 78 03 cb bd
       0.3011104 0.002015088 0.11512931 -0.09912771
000300 ab 55 4e 3e cb a3 4f 3e 80 80 70 bd 05 46 d5 bd
       0.20149867 0.20277326 -0.058716297 -0.10413746
000310 c6 95 0a bd ab bd b1 bd 83 ed 62 be 7b e3 78 be
       -0.03383424 -0.086787544 -0.22160916 -0.24305527
000320 d1 e3 a5 3c f5 18 d2 be 95 05 32 be 8c dd fa bd
       0.020250233 -0.41034666 -0.17384942 -0.12249288
000330 80 a9 df 3d 7e 89 65 3e 36 41 a6 3e 85 05 2e 3d
       0.109210014 0.2241573 0.32471627 0.042485733
000340 0a e0 2f 3e 04 d0 60 3d 66 23 c1 3d a8 4f 2d 3e
       0.17175308 0.05488588 0.0943058 0.16924918
000350 ff 96 06 3e 4b ab 5a be 54 1f 5e 3e 83 ce a4 bd
       0.13143538 -0.21354406 0.21691638 -0.080472015
000360 50 ba e4 bd 60 03 7f 3e d7 09 2f 3c 0a a1 4d 3d
       -0.11168349 0.24903631 0.010683498 0.050202407
000370 cf 22 f8 3e f0 1d a3 bd 0a 9c 96 3c 8d 7c 1e 3e
       0.48464057 -0.079646945 0.018384952 0.154772
000380 8b b3 35 be 6e ee 92 3d 13 cf c3 be ec 3c 18 3e
       -0.17744271 0.07174383 -0.38243923 0.1486699
000390 81 29 0e 3b f9 13 ef be 38 3d 58 3d 6f 02 e4 bd
       0.0021692219 -0.46694925 0.052792758 -0.11133277
0003a0 32 40 17 bc c9 ad 16 be 86 c2 4d 3d cd e9 10 bf
       -0.009231614 -0.14714731 0.05023434 -0.5660675
0003b0 93 df 2c be 34 85 8e be b7 d3 eb bb 62 bc eb 3c
       -0.16882162 -0.27836 -0.0071968692 0.028776351
0003c0 31 f9 86 3d 41 c0 8b 3e 94 c1 61 3c 26 84 1a be
       0.06590498 0.27295116 0.013779063 -0.15089473
0003d0 cf 4c 0d be 75 67 f6 bd f4 13 eb bb 8d 94 94 3b
       -0.13798831 -0.120314516 -0.0071740095 0.00453431
0003e0 37 cb 3b bd 11 b2 64 3d 86 3a 6c bd 54 96 d2 bc
       -0.045848098 0.05583388 -0.057673 -0.025706448
0003f0 67 88 b6 3e ad 60 aa bb f1 41 6a 3e 6a 8d 95 bd
       0.35650942 -0.005199513 0.22876717 -0.07302363

fc2.bias f4 [84]
000000 8e 6c 0b 3d 01 ec f3 3d 96 c1 27 be 6d 9f a2 bd
       0.034039073 0.119102485 -0.16382441 -0.07940564
000010 9b ba f2 3d 72 c3 1c 3d a9 a5 80 bc 2e 84 28 3e
       0.118519984 0.03827233 -0.015703993 0.16456673
000020 e2 07 b4 3d dc a3 3b bc 77 43 0b 3f b9 e1 e2 bb
       0.08790566 -0.011452641 0.5439982 -0.006923881
000030 bb 70 e0 bd d0 83 14 3e 45 b2 32 3e 1b b3 a6 3e
       -0.10959002 0.14503407 0.17450817 0.32558522
000040 85 10 56 be 20 bc 90 3e b7 dc 8b 3e 9a e7 20 be
       -0.20904739 0.28268528 0.2731683 -0.15713349
000050 26 53 69 3e e2 ed 20 3f 4d d1 81 3e 25 46 76 3e
       0.22785625 0.6286298 0.25354996 0.24050196
000060 62 cc d4 bc 4d 18 37 bc a9 31 70 3d 49 88 5d 3c
       -0.025976364 -0.011175227 0.05864111 0.013521262
000070 d1 38 fd bd 33 8d 12 3f 87 6b 24 3f 8c 1f 02 bf
       -0.123643525 0.572467 0.64226574 -0.50829387
000080 8f 1b 86 3d b8 1a 3d be 92 85 83 3e 79 51 c1 3e
       0.06548225 -0.18467224 0.25687844 0.3775747
000090 27 8d d4 3e 6e 81 c9 bd 72 95 1a be 9a 42 c8 be
       0.4151394 -0.0983914 -0.15096071 -0.39113313
0000a0 22 db c4 3e de 22 98 3e ae 51 85 3d 2d a3 18 3f
       0.38448435 0.29714102 0.0650972 0.59623986
0000b0 9e 1f 81 3e 04 9d d5 be e7 d9 00 3f 34 26 f2 bd
       0.25219434 -0.41721356 0.5033249 -0.11823693
0000c0 b1 a7 ba bd 0c 4d 07 3d de ea 68 3d 0f cd a0 3e
       -0.09114016 0.033032462 0.05686461 0.31406447
0000d0 e0 a4 0b be d3 c6 fc 3e 5c c2 19 be 85 37 08 3e
       -0.13637114 0.4937044 -0.15015548 0.13302429
0000e0 6a a2 b1 bc b2 9a 0c 3d 6a de 36 be 09 77 8a 3e
       -0.02168389 0.034327216 -0.17858282 0.27043942
0000f0 b5 f3 ea 3e fb 22 e9 bc d2 16 36 3e 02 81 95 3b
       0.4588906 -0.028459063 0.17782143 0.004562498
000100 06 28 03 3e f7 08 79 3d 80 9d 11 3e 7a d6 1f be
       0.12808236 0.060799565 0.14220238 -0.1560916
000110 e2 60 08 be 41 94 c8 3c 97 c9 3a be 96 39 e9 be
       -0.13318208 0.024484755 -0.18240963 -0.45551747
000120 37 89 1c bd 10 b6 8e 3e 2e 80 20 3c 84 d0 93 3e
       -0.038216796 0.27873278 0.009796185 0.28870022
000130 77 de 30 3e e8 19 30 3d 34 8b 35 bd 25 1d b3 3d
       0.17272364 0.042993456 -0.044322208 0.08745793
000140 ab 3b 9d 3e 5b d7 65 be 73 cf 05 3e 7a 70 6a 3d
       0.30709586 -0.22445433 0.13067417 0.057236172

fc3.weight f4 [10, 84]
000000 f2 94 e1 bd 6d c4 f2 bc cc 03 59 be 68 d7 aa bd
       -0.11014737 -0.029634679 -0.21192855 -0.08341867
000010 1f 91 1d 3e f6 de 9d 3d 4e 1d 09 3e 27 f3 a9 bd
       0.1538739 0.07708542 0.13390085 -0.08298331
000020 1c 97 e6 3d ad 5f 30 be e7 c0 fd bd 88 59 be be
       0.112592906 -0.17223997 -0.12390309 -0.37177682
000030 8e 78 c0 bd be 71 74 3d 80 5e a6 3d 49 bd 2e bf
       -0.09397994 0.059678786 0.08123493 -0.68257576
000040 9e a2 c0 be 56 49 b7 3d d3 85 cf 3e be b2 3f bf
       -0.37624067 0.089495346 0.40531787 -0.74882114
000050 14 db a8 bd fc 4c 40 3e a1 01 41 bd d4 be 8a 3e
       -0.08244911 0.18779367 -0.047120694 0.27098715
000060 47 43 48 bc 5f 6e da bd ce de 90 3e f2 27 90 be
       -0.012223071 -0.10665583 0.28294986 -0.28155476
000070 6a b5 62 3e 4d 3b cc be df ea 70 3e f4 2f 18 3e
       0.22139516 -0.39888993 0.23527096 0.14862043
000080 46 d1 75 be 8e c3 81 3c 30 97 97 be 77 25 8b be
       -0.24005613 0.015840318 -0.29607534 -0.2717702
000090 39 f1 43 3e 7e 93 33 bd 84 96 d8 bd 21 4b f4 be
       0.19134988 -0.04384183 -0.105755836 -0.4771357
0000a0 ac d4 12 be f2 25 c8 be 17 20 2a 3e 46 29 23 3e
       -0.1433894 -0.3909145 0.16613804 0.15933713
0000b0 a9 e6 e7 bd c9 94 96 bd 67 ed a0 3e 8a 78 2e bc
       -0.11323292 -0.07352597 0.31431124 -0.010648856
0000c0 98 fd 4f bd 3e e4 ed 3e 45 c3 c2 bd 0c a7 f7 be
       -0.050778955 0.46463197 -0.09509901 -0.48369634
0000d0 fe 62 1c 3e 76 36 41 be 3b d2 07 3e e8 ca a9 bd
       0.15272138 -0.18868431 0.1326379 -0.082906544
0000e0 1a fa 8b bd 9c ee 53 3e 4d 38 e2 3e 2c 7f 74 3d
       -0.068348125 0.20696491 0.4418358 0.059691593
0000f0 1f d5 1e bf 55 da 3d bd 6d 56 42 3e 83 35 a4 3d
       -0.62043947 -0.046350796 0.18978281 0.08018019
000100 d7 8c c8 bd 29 b6 a1 be 03 e6 9b be af 9c 26 3e
       -0.09792488 -0.3158429 -0.30448923 0.16270708
000110 af df c4 be 1a 27 ec 3e 26 b4 44 3e 30 37 49 3e
       -0.38451907 0.46123582 0.19209346 0.19649959
000120 41 a1 18 3b 5e 8d 65 3d 08 9f 60 bf c0 1c 6c bc
       0.0023289474 0.05604302 -0.8774266 -0.014411151
000130 35 9d c2 be 2a 7b f0 3e be 17 d8 bd 50 b6 b7 3e
       -0.38010564 0.46968967 -0.105514035 0.3588128
000140 ba 07 1b bf 20 9a c3 bf 39 fe 17 bf e3 9b 15 3e
       -0.60558665 -1.528141 -0.5937229 0.14610247
000150 57 3e 0a 3e a5 55 ff 3d f7 35 83 3d 72 99 5a bd
       0.13500343 0.12467507 0.06406777 -0.053368993
000160 86 9a 70 be db cc be bd f7 0f 29 3e 77 f3 35 3e
       -0.23496446 -0.09316417 0.16509996 0.17768656
000170 5e 2f 91 be 74 1d 8d 3e 8d 3d 6e be ef eb ff be
       -0.2835645 0.27561533 -0.23265667 -0.4998469
000180 b2 47 48 3d ee 67 2b be d5 51 70 3e 88 8a 36 be
       0.0488965 -0.16738865 0.23468716 -0.17826283
000190 bb 05 c7 be e4 6c 8a 3d ad 74 3f be d1 86 04 3f
       -0.3887156 0.067590505 -0.18696852 0.51768214
0001a0 c4 4c 9d 3d 57 f7 15 bf 1e 90 41 3e 29 e9 84 be
       0.076806575 -0.58580536 0.18902633 -0.25959137
0001b0 68 f2 82 bd bc f6 bf 3c 27 3d cb 3e d2 3e 9c 3e
       -0.063938916 0.023433082 0.39695093 0.30516678
0001c0 4f d8 0d 3d b3 45 19 bf 7f c5 36 bf 68 43 1c 3e
       0.034630116 -0.5987198 -0.71395105 0.15260088
0001d0 db 9d 9d be 0e 48 59 3e 40 ee 3f be 8d 04 21 3e
       -0.30784497 0.21218893 -0.18743229 0.15724392
0001e0 73 85 57 bf 34 5e c2 bc 8d 23 8e 3c cd 3f 8c be
       -0.84188 -0.02372656 0.017350936 -0.27392426
0001f0 18 02 0c bf 07 b6 0f 3c 68 47 bd 3d d0 0f 20 bf
       -0.54690695 0.008771426 0.09242135 -0.6252413
000200 10 63 bb 3c d6 e9 36 3e f0 86 4a bf 24 7a f3 3d
       0.022874385 0.17862639 -0.7911215 0.11888531
000210 fb 7f 0e bc 13 86 20 be 25 27 62 3e 48 16 97 bc
       -0.008697505 -0.15676145 0.22085245 -0.018443242
000220 d5 22 f9 3d bb 14 25 bf b4 0e bc 3d d8 b9 25 3e
       0.12164847 -0.6448476 0.09182492 0.16184175
000230 4c 9d 1c bd dc be 60 bd a0 e8 d3 be 1b 5a 1e bf
       -0.038235947 -0.054869518 -0.41388416 -0.6185624
000240 d9 8f 08 bf 24 1e d2 bc 3a 46 e8 ba a9 1d 39 3e
       -0.53344494 -0.025649138 -0.0017721124 0.1807772
000250 ef a4 aa 3d 90 2f 9f 3e f0 23 9f 3e 9e fc 38 3b
       0.0833224 0.31090975 0.31082106 0.0028226743
000260 03 87 54 3e a7 06 e8 be c6 e4 ab 3e 01 fb 83 3d
       0.20754628 -0.45317575 0.33572978 0.064443596
000270 20 88 29 bd 25 de 44 bf 40 26 c8 3d aa 35 e4 be
       -0.041389585 -0.76901466 0.097729206 -0.44572192
000280 89 a3 41 bf e9 21 a1 be 76 d4 4f bd 59 3e 1a bc
       -0.7564016 -0.31471184 -0.050739728 -0.009414279
000290 f6 f5 d7 bc 06 e4 ac be 80 88 5d be d9 ab 8c be
       -0.0263624 -0.33767718 -0.21634102 -0.2747486
0002a0 9b ef 00 3e 96 58 dd 3e 30 90 5f 3d cb a1 03 3d
       0.12591402 0.43231648 0.054580867 0.03213672
0002b0 d5 59 00 3e 6c c5 f9 3b 29 d6 22 3e 26 76 88 be
       0.12534268 0.0076224115 0.15902008 -0.2665264
0002c0 f9 70 c4 3e 14 8a 0a 3d c5 f2 db 3e 83 15 9d 3e
       0.3836744 0.033823088 0.42958656 0.30680475
0002d0 78 4a 15 bd f6 bd d4 bd 58 ce 86 3d 18 86 87 3d
       -0.036447972 -0.10387795 0.06582326 0.06617373
0002e0 85 8c 1b bf 90 07 82 be 8a fb f3 bd 7b 46 ba 3d
       -0.6076129 -0.25396395 -0.11913212 0.09095474
0002f0 65 ab 93 be 99 9c e6 bd 57 f7 d1 be e9 e8 3c 3e
       -0.288417 -0.112603374 -0.41009018 0.18448223
000300 b1 0e 4f bd c6 15 01 be c5 25 f0 be fa 84 10 bf
       -0.05055112 -0.12605962 -0.46903816 -0.56452906
000310 6c a4 ac 3d c1 6d 00 be 35 7a 24 be d6 43 8c be
       0.084297985 -0.12541868 -0.16062243 -0.27395505
000320 13 f6 bb be 92 91 9d bd af a0 eb 3c be 52 1f 3e
       -0.36711177 -0.07693781 0.028763143 0.15558907
000330 24 3a 99 3d 3f 2a e8 bb 11 bf bf 3c 5a 16 3f 3f
       0.074817926 -0.0070851143 0.023406537 0.7464348
000340 74 89 b9 bd ac a1 85 3e 62 e5 d8 3e 95 74 9c 3d
       -0.0905942 0.26099908 0.42362505 0.07639424
000350 92 5d 80 3e d6 5f 68 3d 5b 97 84 3d f0 13 2c bd
       0.25071388 0.05673202 0.06474181 -0.0420112
000360 73 0f fa 3c 25 41 2e bf 21 63 29 be 4f 9e 07 3e
       0.030524945 -0.6806815 -0.16541721 0.13243984
000370 4f e9 0d 3e d1 0e a7 3c c0 8f 0a bc 2a 04 6b be
       0.13858531 0.020392807 -0.008457124 -0.22950807
000380 31 c5 bc bd 99 b5 a5 be 6e ac bd be 2d 5c cc 3d
       -0.09217299 -0.3236511 -0.37045616 0.09978519
000390 ea d5 b5 be 76 1b 32 3e 9d 81 5d bf b0 84 12 be
       -0.35514766 0.17393288 -0.865259 -0.14308429
0003a0 27 62 30 3e c4 87 6e be 88 b7 0f bf f9 f9 30 be
       0.17224942 -0.23293978 -0.5613942 -0.17282857
0003b0 cf f9 aa 3d 64 f5 64 3c 9a ec 83 3e 50 1f b2 3d
       0.083484285 0.013974521 0.2576645 0.08697379
0003c0 39 ec 57 3d a4 5d f9 bd 62 b0 9b 3e b7 c9 b4 be
       0.052715514 -0.12176064 0.30408007 -0.35310146
0003d0 d3 f9 a0 3e 7e 38 d5 3e 9a ee e1 bc 6b ea d6 be
       0.314406 0.41644663 -0.027579594 -0.41975722
0003e0 33 d4 f2 bd f1 16 57 3f ea 30 a3 3e 4b ca 64 3d
       -0.1185688 0.8401938 0.31873256 0.055856984
0003f0 60 b2 21 3e cd c7 2d 3e 21 de 06 3c 80 ee 1c be
       0.15790701 0.16970749 0.008231671 -0.15325356

fc3.bias f4 [10]
000000 29 43 ed bd a1 1f 0a bf 78 a5 17 3e f5 c3 10 3e
       -0.115850754 -0.5395451 0.14809215 0.14137252
000010 b7 00 95 3e 8b 14 47 be 89 43 a9 3c 1f 76 98 3d
       0.29102108 -0.1944143 0.020662086 0.07444405
000020 6a 1c 53 3d d1 48 14 3c
       0.05154077 0.009050564
